Assets/config/results/ppo/RL_Model/RL_Model-999986.onnx (onnx, 597417 bytes, 13 tensors)

network_body.observation_encoder.processors.0.normalizer.running_mean f4 [51]
00000000: 29a2 493f c372 103d 2f67 d83e 2805 443f
00000010: 5099 093d 27e3 d33e 7cad 443f fc7f 033d
00000020: efbd d33e 5e5d 403f d4b1 153d eace d23e
00000030: 899a 413f d8cb 0e3d 2ddf d23e 3dc2 3b3f
00000040: 53a9 323d afba d53e e9d1 3c3f 6378 273d
00000050: a43b d73e abda 353f 34f8 383d f28a d93e
00000060: 52f9 333f 9e30 343d d9a7 dc3e 900b 323f
00000070: 59c1 323d 222f e13e 060c 2b3f b135 543d
00000080: 4da2 e83e 5ed1 2f3f 6b97 723d 44a4 ee3e
00000090: 26c5 203f 0baf 7d3d ad57 f83e c416 2e3f
000000a0: c71d 953d 2a42 f63e 0266 1c3f de45 b93d
000000b0: 2651 053f 43e5 2f3f 30b4 a83d 2d86 fa3e
000000c0: 0bb8 203f 9a45 be3d 2234 093f
0.7876306 0.035265695 0.42266223 0.7657037 0.033593476 0.4138424 0.76827216 0.032104477
0.41355845 0.7514247 0.036546543 0.41173488 0.75626427 0.03486237 0.41185895 0.7334326
0.04361851 0.4174399 0.737578 0.040886294 0.4203769 0.71036786 0.04515858 0.4248882
0.7030231 0.043991677 0.43096808 0.6954889 0.043641422 0.43981272 0.6681522 0.051809017
0.45436326 0.68678844 0.059226435 0.466097 0.62800825 0.061934512 0.4850439 0.6800349
0.0728107 0.48097354 0.6109315 0.09046529 0.5207695 0.687092 0.08237493 0.48930493
0.6278083 0.09290619 0.53595173

network_body.observation_encoder.processors.1.normalizer.running_mean f4 [6]
00000000: ff95 10bf 80b2 ef3f fe35 42c2 bb4c 48c1
00000010: 0000 0000 00f6 2ec2
-0.56478876 1.8726349 -48.552727 -12.518733 0.0 -43.740234

network_body._body_endoder.seq_layers.0.weight f4 [256, 57]
00000000: d6c5 7ebe ec41 013d 7e87 4f3d 7f69 fe3d
00000010: 0c5e 38bb 3623 5fbe 083f 03bd 00ae f9bd
00000020: cb7a 8d3d 71df d4bd d07e 553d 8576 653d
00000030: 5ac2 70bd 6b14 55bd 791b 85bd cdde db3c
00000040: 490f 83bd 2201 413d d9f4 e5bd ced7 b1bc
00000050: 02b1 d53b b729 8abe 5e0f 77bc 4fb8 9b3d
00000060: 6b1d 21bd ecb8 f13d e635 1a3e b858 d23a
00000070: 046b 0a3c 5ab0 b93d d18d 303e 0175 fb3d
00000080: d4b3 d53d 3049 f5bd 07ec 0b3e 12d6 83bd
00000090: d3de 5c3e 0b50 06bd 6c2b 7b3c a316 803e
000000a0: 4592 123c 9051 0cbd 6e05 4abc 8eb7 1dbe
000000b0: 5204 293c c783 ecbd 735f d73c dbf1 ce3c
000000c0: 5bfb 863e 6725 adbd d091 0c3c e250 f53c
000000d0: 4df4 103e 0d6f 43be e545 04be 1f1c ecbd
000000e0: d76b 64bc 58bf 693d 9a9e 1b3e 4099 1b3e
000000f0: 83f9 a13e 2a23 f5bd d1a9 15bd 0a51 84be
00000100: 604d 123d 425d 3cbc 2886 6fbd 5be5 813e
00000110: 327e 28bc 00c7 8e3e 5cf1 003e f00c 0d3e
00000120: 352c 7f3e 56f1 10bc 4ca6 06bc c192 4a3e
00000130: 6df4 f83d 69da 12be e2a8 473e 38ed 953e
00000140: a2cd a73d f15b fd3c b4d3 d23b 888d 023d
00000150: f297 743d 3e5a 87be 25c1 0c3e 79c2 0dbe
00000160: c899 7f3c df23 bcbd 485b 21be 9546 ccbd
00000170: 76f5 cb3d 074c 40bd 2895 253e 47b5 9f3d
00000180: b82f 5ebe 249c 2fbd 2903 24bd 5ef8 533d
00000190: 2692 c4bd f10a 703e 4b34 043d a2ed 8fbd
000001a0: 68dd af3d 134d 76bc c59d f3bd 17a9 37be
000001b0: ca95 96be 2db0 283e c3a9 80be 9277 833d
000001c0: 2c57 33bd 5545 633e a969 20bd bbfd 413e
000001d0: 98da aebd f5ca 573e d317 053e fd9e d6be
000001e0: 78ee 9a3d 633d 3cbe 1f48 0dbe 1bcf 0d3e
000001f0: ce48 243d 8396 593e a46e 3f3d 53b7 d43d
00000200: 9814 a13d 3c7e 503c cc15 ce3b 77d7 de3d
00000210: 44a2 03bd 3d1e 2ebe 41f3 c5bc a175 66bd
00000220: 0726 15be 404b 8abd e859 48bd 0ebe 1cbe
00000230: f645 5b3e 2ed9 0ebe a6fc b5bd 4035 30be
00000240: 15fc d2bd 9a54 7dbe 7436 4e3d cb48 b6bd
00000250: aa9c c33d 350e d23d f123 833d 71b2 793e
00000260: 1f2b 20be 1a87 2a3d e356 13bc da87 ebbc
00000270: 325d 9b3a d2fd 55bd 5ffd a0bd 58e2 b33d
00000280: 2089 2bbe 4da7 87bc dc75 053e 8a3c 56be
00000290: 808e c7bd 3cea 94bd 3ab0 8abe 9ff8 c83c
000002a0: 2bfa 5f3d 66e3 463d 7f0e 213d ca7e 0ebe
000002b0: 864e a0bd 8e66 27be 4d15 be3d e9c9 cc3c
000002c0: 3cda 7e3e 37c9 27be 10ab bf3d 9410 813d
000002d0: 9383 11be bb09 113c 7788 9fbd d7f4 adbe
000002e0: fa03 533e 90e3 60bd 9776 a0bd 2818 ddbc
000002f0: 501a 4abd 58f1 95bd 6bc3 533d a90b 133e
00000300: 7daa 78bc 3e0e ee3d f74b 68bd bdd4 3d39
00000310: e1cc df3d 6838 d73c fae3 823e 6560 89bd
00000320: 2c51 473e 2d3f 953d 9fbe 39be 3367 2d3d
00000330: 06de 453b 6122 65bc 1124 913d 4d9a 42bd
00000340: 7a1f adbd 88e5 21bd 071d 4f3e 96ae c0be
00000350: c131 e8bd 756c 2bbd 348c c5bd 77ab a3bd
00000360: e3b4 1d3e 421b f6bc e4fc 0cbc bcae af3d
00000370: d65f 2e3d d34c 8f3c 7b46 16be 3a14 d63d
00000380: 0cac 8e3c b39a 2bbe 29e7 603d 66b4 86bd
00000390: 9f42 643b f602 0dbe 1b3d e3bd 64ca 09be
000003a0: 7890 42bd 1a01 c3bd 61af 79be 0b19 573e
000003b0: c1e5 b4bb f2a9 1c3e 2ae3 39be a18a 1e3e
000003c0: cf83 fa3d 3a5a 973d fea7 47be 3b16 003e
000003d0: 1a75 3b3e 6854 f53d 8e85 a8bd 02c5 14be
000003e0: 8bb5 30be 3462 8b3d 3e65 23be b2df 643d
000003f0: 41bc f0bd 0a59 a63d 9671 893c 3fa5 913d
-0.24880156 0.03155701 0.050666325 0.124224655 -0.0028132228 -0.21790776 -0.032042533 -0.12191391
0.069081865 -0.103941806 0.05212289 0.056021232 -0.058779098 -0.052021425 -0.064993806 0.026839638
-0.063994 0.04712022 -0.112283416 -0.021709349 0.006521345 -0.2698495 -0.015079347 0.076035134
-0.039334696 0.11802849 0.15059623 0.0016048169 0.008448366 0.090668395 0.17241599 0.12278176
0.1043469 -0.1197685 0.13664256 -0.06437315 0.21569376 -0.03279118 0.015330177 0.2501727
0.008946006 -0.03425747 -0.012330396 -0.15402052 0.010315971 -0.11548572 0.02629063 0.02526181
0.26363644 -0.084543996 0.008579686 0.029945794 0.14155693 -0.19085331 -0.12917288 -0.11528801
-0.013941727 0.057067245 0.1519722 0.15195179 0.31635675 -0.11969598 -0.036538903 -0.25843078
0.03571832 -0.011496844 -0.05847755 0.25370297 -0.010283994 0.278862 0.12592071 0.13774467
0.24919207 -0.0088466015 -0.008218359 0.19782545 0.121559955 -0.1434113 0.19498017 0.29282546
0.08193518 0.03092763 0.0064339284 0.031873256 0.05971522 -0.26436037 0.13745554 -0.13843717
0.015600629 -0.09186529 -0.15757477 -0.099744 0.09958927 -0.046947505 0.1617018 0.07798248
-0.21697891 -0.042873517 -0.040042076 0.051750533 -0.09598188 0.23441674 0.032276433 -0.07027747
0.08587152 -0.015033024 -0.118953265 -0.17935596 -0.29411155 0.16473456 -0.25129518 0.064192906
-0.043784305 0.22194417 -0.039163265 0.18944447 -0.08537787 0.21073516 0.1299737 -0.41918173
0.075650156 -0.18382792 -0.13797043 0.13848536 0.040108494 0.21248822 0.046736374 0.10386529
0.07865256 0.012725409 0.0062892195 0.108809404 -0.03213717 -0.17003722 -0.024163844 -0.056264523
-0.14565288 -0.06752634 -0.048913866 -0.15306875 0.21413407 -0.13950035 -0.088860795 -0.17207813
-0.10301987 -0.24739304 0.0503449 -0.08900603 0.09551366 0.10256616 0.0640334 0.24384476
-0.1564145 0.04163275 -0.008992883 -0.028751303 0.0011853336 -0.052244015 -0.07860827 0.08783406
-0.16751528 -0.016559267 0.13033241 -0.20921531 -0.097439766 -0.07271239 -0.27087575 0.024532614
0.05468194 0.048556708 0.039320465 -0.13915554 -0.07827477 -0.16347715 0.092814066 0.024998622
0.24887937 -0.16385351 0.093587995 0.0630199 -0.14210348 0.008852418 -0.077897005 -0.3397586
0.20606986 -0.05490452 -0.07835119 -0.026989058 -0.0493415 -0.07321423 0.051700037 0.14359917
-0.015177366 0.1162381 -0.05671307 0.00018103696 0.109277494 0.026272014 0.25564557 -0.06707839
0.19464558 0.072874404 -0.18139122 0.042334747 0.003019215 -0.013985247 0.07086957 -0.047510434
-0.08453269 -0.03952554 0.20225917 -0.37633198 -0.11337615 -0.04185148 -0.09645882 -0.07991689
0.15401034 -0.030042294 -0.008605216 0.0857825 0.042571865 0.017492687 -0.14675324 0.10453077
0.017416023 -0.16758232 0.05490795 -0.06577377 0.0034829748 -0.13770661 -0.11095639 -0.13456112
-0.047501057 -0.095216945 -0.24383308 0.21005647 -0.005520553 0.15299204 -0.18153062 0.1548257
0.12232172 0.07390256 -0.19497678 0.1250848 0.1830639 0.1197899 -0.082285985 -0.14528278
-0.17256753 0.0680584 -0.1595659 0.055877395 -0.117546566 0.081224516 0.016777795 0.07111596

network_body._body_endoder.seq_layers.0.bias f4 [256]
00000000: 505e 293c a26b 5f3c f8bf 223c 0e80 b43c
00000010: ac01 a63b ca9f 133c 0084 f03b fd0f f4bb
00000020: 4acd 843c 24e5 d73a a202 93bb eb67 21bc
00000030: 4783 173c dee8 663c 96b1 6a3c e402 feba
00000040: 31c8 713b 3063 933c 8432 f63c 79cb d13b
00000050: a1b2 7c3b aab0 2c3c 3b85 7abb af88 563c
00000060: b3be 173c 2215 b43c ec1f 893c 6b07 82bb
00000070: dc15 653c d742 ab3c c446 9c3c 0949 85bc
00000080: fe39 a83c b9bb 853c 5c4c 7abb 61e1 4c3c
00000090: 3e1f 7f3c 2d79 913b edbb 983c ff8c 103d
000000a0: cf6f 5d3c 7c45 1d3c 2615 d33b d38c 823c
000000b0: 0760 b13c a68d 5e3b d96c 283c a475 df3b
000000c0: c601 5dba 5bc5 903b 43f4 2f3c ec45 a0bc
000000d0: 9211 243c 36d5 a73c 24d2 39bc f1be 0b3c
000000e0: b7f7 ba3c 75a6 733c 0a1d 9f3c ce6e 2c3c
000000f0: d85d 933c 15c6 803c 20d0 293c cd99 973c
00000100: 831b 80bb f977 c93c 60ed 913c 0c8b 7cbb
00000110: 4201 4eb9 34f6 8b3c 9602 243b a209 6b3c
00000120: cf5d 9bba 8534 0d3c 605d 5a3c 0f66 ad3c
00000130: 8a0a 6d3c 5494 fc3c 03e6 6ebc e14d 953b
00000140: 3198 5fbc 72b4 ff3b 4ca1 b23c 4eac d7bb
00000150: 67b6 4d3c c6aa 8b3c 6e7f d03b 3e8a 933b
00000160: d4e6 893c fb4c fa39 8cb8 81bc 629e ae3c
00000170: 20f6 073c ba2b 603c fc32 1bbb e474 093c
00000180: 24ff 0d3c 3ffd 9c3c 914f 633c 790d 5b3b
00000190: 4935 613c bf2b 01bc 879a 093b fbbc 863c
000001a0: b655 803c 13d8 183b 0548 6b3c 6c75 b83c
000001b0: 4e15 bd3b 4a34 7c3c 92aa 963c fca0 943c
000001c0: 71ca 33bb d3d2 b9bb f9fc b43c eb59 413c
000001d0: ee5a a23c 6805 4b3c 7a2e 22bc 2b0e 1a3c
000001e0: ae30 b73b e3f3 0bba 9d69 153c c32d 583c
000001f0: 303d 1bbc 906f af3b 172d df3c 8fb9 8ab9
00000200: e4f4 b73c 7ea8 e93c d67e 833b 9e43 1bbc
00000210: 327f e2ba 0488 933b 6017 22bb 0b59 343c
00000220: 76a4 abbb 80f3 0c3b a2ca a73c c3a3 263c
00000230: 5ec0 b73c 0e80 fb3b 8826 823c b04d abbb
00000240: d2bc 82bb b0a8 d93c c9e9 083c 10a3 e23b
00000250: f7cb b8b8 cb21 2f3c 2960 fd3b ee4c 4cbc
00000260: 24ca 8f3b c510 06ba e360 c83c 275f beba
00000270: 927b cf3c 06db e93c ee0f 9f3c 115c 903c
00000280: c01e a33c 0667 88bb 15ef a53c 81d7 9e3a
00000290: 7a7f c83c 6496 22bc 96e6 2c3c 77da 093d
000002a0: 6836 193b a1d3 253b 6868 f13b b8b7 3b3c
000002b0: 0b87 013d 84bb 9d3c 0355 d7bb 81a0 fd3a
000002c0: 301c 6a3b 27c7 6b3c 3647 683c ebc7 643b
000002d0: 1ba8 a83b df77 cabb dea3 2abc d624 2fbb
000002e0: 14eb e63c 83bb a83b fb4b f4ba ff33 963c
000002f0: b217 8bbb 4e8c 0e3c 6406 d6bb e917 b33a
00000300: 04c8 a33c 6970 24bc 9b83 653c c699 b13c
00000310: b3fc d73c 7a0f 9d3c 2d78 913b d8a6 5c3c
00000320: 021b d43b d688 9b3c bb36 ab3c 1ec0 02bb
00000330: b657 97b9 c061 753b 1535 e23c 995b a43b
00000340: 3844 c53c e7d9 223d 5e5c c637 4cf4 cfba
00000350: ac4b 603c 222a 183c d0da 853c 8b19 113c
00000360: 95f6 09bb a0f9 a43c ff3b 8d3c f1ae f13b
00000370: c81f b73c 0c39 193c 1d62 8b3c 1c98 dabb
00000380: 5afa 573b e170 9c3c 6e8e a7ba 5cbb 79bb
00000390: d56d 1a3c 763e e73b 46db b93b 9280 5c3b
000003a0: 0d30 573c 684a 983a fd9d a638 bd0d d13c
000003b0: b527 b73c cfa1 e73b 4878 8d3a 7725 3e3c
000003c0: c6ea 083c a590 dd3a c30d da3a 07bd 39bc
000003d0: e8a8 663c 8aa1 e43b a671 8dbb fa4f 1c3c
000003e0: 01de 3c3c c583 fd3b 5258 9539 4fb0 d13c
000003f0: e6ce 823c cc9c 38bb 85de 983a a986 a53a
0.010337427 0.0136365015 0.009933464 0.022033717 0.0050661173 0.009010265 0.0073399544 -0.007448195
0.01621117 0.0016471487 -0.004486398 -0.009851436 0.009247608 0.014093606 0.014324566 -0.0019379524
0.0036893005 0.017991632 0.030053385 0.0064024297 0.003855862 0.010540167 -0.0038226384 0.013094111
0.009261775 0.021982733 0.016738854 -0.0039681694 0.013982262 0.020905895 0.019076712 -0.016270177
0.020535465 0.016324865 -0.0038192486 0.012504906 0.015571414 0.004439494 0.018644297 0.035290714
0.013515427 0.009599086 0.00644173 0.01593629 0.021652235 0.003395894 0.010279858 0.006819444
-0.0008430745 0.004418058 0.010739389 -0.019564591 0.010013955 0.02048741 -0.011341605 0.008529411
0.022823198 0.014871229 0.019423027 0.010524465 0.017989084 0.015719453 0.010364562 0.018505955
-0.0039095297 0.02459334 0.017813385 -0.0038535027 -0.0001964616 0.017085172 0.0025025955 0.014345558
-0.0011853519 0.008618479 0.013327926 0.02116683 0.014467845 0.030832447 -0.014581206 0.004556403
-0.013647125 0.007803493 0.021805428 -0.0065818196 0.012555695 0.017049205 0.006362847 0.0045025637
0.0168337 0.0004774107 -0.01583507 0.021315757 0.008298427 0.0136823 -0.0023681512 0.008389685
0.008666787 0.019163726 0.013873951 0.0033424778 0.013745614 -0.007883965 0.0020996646 0.016447535
0.01566587 0.002332215 0.0143604325 0.022516929 0.005770362 0.015393326 0.018391881 0.01814317
-0.0027433897 -0.005670884 0.022093283 0.011801223 0.01981875 0.012391426 -0.009898776 0.009402792
0.00559052 -0.0005338771 0.009119418 0.013194504 -0.009475037 0.0053538755 0.02724318 -0.00026459663
0.02245564 0.028522726 0.0040129228 -0.00947657 -0.0017280339 0.0045022983 -0.002473317 0.011007558
-0.005238111 0.0021507442 0.020482365 0.01017088 0.022430595 0.0076751774 0.015887514 -0.005227767
-0.0039897943 0.026569694 0.00835652 0.006916411 -8.811795e-05 0.010689209 0.0077324104 -0.012469513
0.0043881107 -0.0005114193 0.024460262 -0.0014524207 0.025327478 0.028546821 0.019416776 0.017622026
0.019912124 -0.004162672 0.020255605 0.0012118669 0.024474848 -0.009923551 0.010553023 0.03365561
0.0023378376 0.0025303143 0.0073671825 0.011457376 0.031622928 0.019254453 -0.0065714135 0.0019350202
0.0035722367 0.014390743 0.014177134 0.00349092 0.005146993 -0.0061788405 -0.010415046 -0.0026724837
0.028188266 0.0051493063 -0.0018638367 0.01833534 -0.004244768 0.008700443 -0.0065315235 0.0013663742
0.019992836 -0.010036566 0.014008428 0.02167977 0.026365614 0.019172419 0.004439375 0.013467513
0.006472946 0.018986147 0.020900121 -0.0019950937 -0.00028866314 0.0037442297 0.027613202 0.005015802
0.02408038 0.03975859 2.3646451e-05 -0.0015865653 0.013689917 0.009287389 0.01633969 0.008856188
-0.0021051515 0.020138562 0.017240522 0.007375591 0.022354022 0.00935198 0.017014557 -0.006670965
0.0032955618 0.019096794 -0.0012783536 -0.003810606 0.0094256 0.0070570065 0.0056718914 0.003364597
0.013134015 0.0011618854 7.9449244e-05 0.025519246 0.022357801 0.0070688496 0.0010793293 0.011605612
0.008356756 0.0016904069 0.0016636181 -0.011336572 0.014078356 0.006977265 -0.0043165265 0.009540552
0.011527539 0.0077366554 0.00028485298 0.025596766 0.015967797 -0.002816963 0.0011662996 0.0012628633

network_body._body_endoder.seq_layers.2.weight f4 [256, 256]
00000000: 7111 12bd 91cd 30bd aced 7d3d 1c3e 0dbd
00000010: 54b0 bcbd a670 4dbd dd53 c3ba 201f 88bd
00000020: b3ff a7bc 0f5f 5e3c 3786 283d 69e4 58bd
00000030: 97ae 2dbd 7d6e 28bd b936 49ba 9f2a 833d
00000040: 4088 2bbd d24c c63d 27ab 0bbe c6b0 d6bd
00000050: 6cc4 58bd 765d 803c ec96 473d ca4e c33d
00000060: 8749 2b3d 9be4 82bb a9c4 8dbb f77c eabd
00000070: 7575 ab3d f301 90bc 2bf5 4ebd 1ff9 08bd
00000080: bb3d 84bd da20 e5bd 8d67 483c 7b98 fc3d
00000090: ee05 3f3d 27ab b2bd 429d f4bc 8992 0cbd
000000a0: 3e5c 603d e109 113d 7005 ea3c cb7e a4bd
000000b0: 8d33 153d 3af1 343c 2aff 52bc e620 fe3c
000000c0: 89ae 083d 546b b63c e2c3 ddbc e8c9 cb3c
000000d0: e52a 0abe fa2b 533d db52 3c3d 0972 b4bb
000000e0: 3f97 e33d 6c2e 543d 90e5 ac3d ebf6 8e3d
000000f0: 031b c5bd dde1 dfbc 803b aabc d644 cebd
00000100: 60c6 e53c e054 42bd a3e5 f3bd b5dc a73d
00000110: 70fd 2bbd 6ffc 14be 2333 89bd 10d7 13be
00000120: 834d 343c 19eb 3e3e ae5b 50bd b6a8 363d
00000130: 12bd 1c3b 3120 14bd 318b b9bd 939d 78bd
00000140: e160 563b 9b5c 8ebb 58bc 3fbd f3f5 b3bb
00000150: bf32 16be bacd b0bd 472b 283d 4e5e 46bd
00000160: c74a 77bd fe42 e73d 208c fe3c ae1d 323e
00000170: 97a1 b53c 0603 08bb f136 debd 6d5d 05be
00000180: c350 a6bd 0b59 8dbd 6637 403d 6306 25bc
00000190: 36c1 093c d64f 053d 2fe2 573d 4943 54bd
000001a0: 0798 b83b f0a5 b13d 0e24 33bc c2ab e1bc
000001b0: 1151 34bd 8f49 03bd c661 823d 0398 a83d
000001c0: 0c54 8dbd f7f2 5ebd 8db3 3e3d f08b d03c
000001d0: 289c fcbc 52f1 2e3d 9173 a3bb d355 23bd
000001e0: fda0 b1bd ecb8 b1bc 7a9f e63d 89e3 b7bd
000001f0: b514 a7bc e78e 323e ad52 9fbc ea4b d13b
00000200: a3d7 8bbd dd9a 98bd b788 513d bb90 c7bc
00000210: 48f7 92bd f6ab febc 2e0d 9cbc a219 a6bd
00000220: c674 e0bc 7297 3f3d 2e06 5f3d 0ef0 a93d
00000230: 4305 0dbd 2436 35bd b63f 8fbc 0d73 2abd
00000240: eda6 98bc 00d6 5ebd 3b82 e8bc ce23 d0bd
00000250: d5ba c43c f42f 943d efb6 b43d d0a1 ddbd
00000260: 7311 9c3c bcb0 34bd ce46 46bd 7109 a23d
00000270: fbae eabc 3be2 b03c 4dc4 1fbd df58 2fba
00000280: 0b38 47bd 223d 45bd 81f8 40bc 678a b2ba
00000290: cc98 b63c b167 32bd 56ac 503c b994 933d
000002a0: 1e9d c43d fdbd 583d 55f1 80bd fc19 5fbc
000002b0: 3fe2 133c ed18 06bd 713e a6bd e806 3fbc
000002c0: 8ca8 963d 3419 1ebd 71b2 d23b ca54 24be
000002d0: d902 053c 8ad0 2b3e a1c1 6f3d 5004 b2bd
000002e0: 679a 313d 4171 533d edbc 8abb feba f8bd
000002f0: 36ef 11be 4936 883d 326b 6ebc 7941 f13c
00000300: 5533 3d3c 039c e73d ddf7 213d a77e bdbc
00000310: bbff 97bc 4dea 5a3d 05b8 15bd 4546 e4bc
00000320: 8b71 28bd 1c9e 0cbd 18c7 f33d 970d 1cbd
00000330: ee68 a53d fe84 b3bd e0dc 483d 57f6 adbd
00000340: 9c00 943c a093 b7bd f9d2 ce3c aec4 31be
00000350: 4403 ae3d 5b47 c4bc 7993 d93d 3ba1 3abb
00000360: 3447 e43c 33ae dfbc fdb4 413b b743 c03d
00000370: cee1 84bd 8df1 f73b 7485 d13c 128e af3d
00000380: 4bb8 1abe b19b 01be 2d94 37be 69e0 8cbd
00000390: d6fa 48bd 8ce2 b43d 4736 013e 5633 b9bc
000003a0: fe6a 75bd 9e4f 0d3e c7c8 393d ca2a 66bd
000003b0: 183d 113d 8738 7ebd f19e 0f3d 6c09 1cbd
000003c0: fbf3 483c 083a 8cbb f9b6 1c3d ceed 6a3d
000003d0: 7f0f d13c 8b1d 943b ee66 503d b6c0 283d
000003e0: cea5 0b3c c5cc 433b 8142 49bd 3aba 823c
000003f0: cc78 cd3d a07e 8a3d eb58 81bd a882 29bd
-0.035661165 -0.043164793 0.06199424 -0.03448306 -0.092133194 -0.050156258 -0.0014902313 -0.066465616
-0.02050767 0.013572468 0.041143622 -0.052952204 -0.04240283 -0.041120995 -0.0007675696 0.06404614
-0.041877985 0.09682621 -0.13639508 -0.104829356 -0.052921697 0.015669566 0.048727915 0.09536512
0.041818168 -0.003994537 -0.0043264222 -0.114496164 0.083720125 -0.017579054 -0.05052678 -0.033440705
-0.06457087 -0.111879066 0.01223172 0.12333771 0.046636514 -0.08724051 -0.029860143 -0.034319434
0.05477547 0.035409812 0.028567046 -0.08031996 0.036426116 0.011043841 -0.012878219 0.031021547
0.033369575 0.022267975 -0.027070943 0.02487655 -0.13492925 0.05155561 0.045977455 -0.005506758
0.11112832 0.051802084 0.08442223 0.069806896 -0.09624293 -0.02732938 -0.020780325 -0.10071723
0.028048694 -0.047444224 -0.11909034 0.081963934 -0.041989744 -0.14549421 -0.06699207 -0.14437509
0.011004808 0.1864437 -0.050868683 0.04459449 0.0023916406 -0.036163513 -0.09059752 -0.06069715
0.0032711553 -0.0043445355 -0.046810478 -0.005491966 -0.14667796 -0.08632989 0.041056897 -0.04842978
-0.060374048 0.112920746 0.031072676 0.17394134 0.022171779 -0.0020753755 -0.10850323 -0.1302392
-0.08120873 -0.06901749 0.046927832 -0.0100723235 0.0084078815 0.03254684 0.05270594 -0.05182198
0.0056333574 0.08674228 -0.010933889 -0.02754772 -0.044022623 -0.032052573 0.06366305 0.08232119
-0.06900796 -0.054430928 0.04655795 0.025457352 -0.03083618 0.04271061 -0.004988142 -0.03987677
-0.08673284 -0.021694623 0.112608865 -0.08978946 -0.020395616 0.17437325 -0.019448603 0.0063872235
-0.06828239 -0.07451413 0.051155772 -0.024361005 -0.071760714 -0.031087857 -0.019049253 -0.08110358
-0.027399432 0.04677529 0.054449253 0.0829774 -0.034428846 -0.044241086 -0.017486434 -0.041613627
-0.018634284 -0.054403305 -0.028382411 -0.10163079 0.02401487 0.07235709 0.08823954 -0.10821879
0.01905129 -0.04411386 -0.04840737 0.07911957 -0.02864789 0.02159225 -0.039005566 -0.0006688963
-0.04863743 -0.048154004 -0.011777998 -0.0013621569 0.022289656 -0.04355592 0.012736401 0.07206101
0.0960028 0.052915562 -0.062960304 -0.013617035 0.009026109 -0.032738615 -0.081173785 -0.011659361
0.073563665 -0.038598254 0.0064299633 -0.1604797 0.008118355 0.1677877 0.05853427 -0.08692229
0.04336014 0.05162168 -0.0042339475 -0.12145041 -0.14251408 0.06650979 -0.014551925 0.029450165
0.011547883 0.11309054 0.03954302 -0.023131682 -0.018554559 0.053446103 -0.036552448 -0.027865538
-0.041123908 -0.034330472 0.119032085 -0.038098898 0.080766544 -0.087656006 0.049038768 -0.08494251
0.018066697 -0.08963704 0.025247084 -0.17360184 0.084967166 -0.023959806 0.10623831 -0.0028477449
0.027865984 -0.027304744 0.002955734 0.093879156 -0.06488381 0.007566637 0.02557633 0.0857202
-0.15109365 -0.12657048 -0.17927618 -0.0687874 -0.04906734 0.08832273 0.12618361 -0.022607487
-0.05991649 0.13799903 0.04535749 -0.05619315 0.035458654 -0.062065627 0.035063688 -0.038094923
0.012265201 -0.004279379 0.038260434 0.057355694 0.025520084 0.0045201234 0.05087941 0.04119941
0.008523418 0.002987669 -0.04913569 0.01595794 0.10032806 0.06762433 -0.06315788 -0.04138437

network_body._body_endoder.seq_layers.2.bias f4 [256]
00000000: 51b9 d939 6270 593c 8283 b1bb c3d1 543c
00000010: 6343 9b3b 7c8a 69bc 42bd 51bc 256e 823b
00000020: 1b41 c23b 7027 843b 468a c33b 167d b9ba
00000030: 8d16 25bb 333f 443b fd4b 223c aa94 9e3c
00000040: 6191 4e3c 9190 a5ba d158 38bc bf05 913b
00000050: 0186 9a3c 2172 213c 9b86 ae3c f58f 803a
00000060: 3350 b2bc 8a69 103c 2c68 863c 314f a0b8
00000070: 942f ba3c 0d23 573b 88c8 a53c 97ba 5f3b
00000080: 11bb c93b 1300 19bb db3a 013c a430 0c3c
00000090: f0e7 303a 1f57 673c 5410 9abb 41da f63a
000000a0: 27f8 833c ca45 2d3c 975f 1c3b 3345 3abc
000000b0: 5b67 5dbb ca73 86ba 59e7 363b 73d5 f03b
000000c0: a4b2 903b 1955 ca3c 6bd3 f23b 2956 123c
000000d0: 1d64 053c bda5 3e3c bf2b 10bc 5f4c 20bb
000000e0: d252 8dba d883 943c b17e 68bb 0f9c 2237
000000f0: 0e8e ac3c 5bbb c93b 7136 bebb 02c7 4b3b
00000100: ceef d73b 45ae af3b 08a7 c03c 5e98 cebb
00000110: ec57 a23c 95fb e03b 6554 5dbb 8dd7 27bb
00000120: 70c4 513c 292c be3b 964b 06bb fd00 843b
00000130: f488 d8bb 7207 343b da89 7f3c 5f87 de3b
00000140: d748 8c3c 1e01 6ebc 1c31 993c fab9 0e3c
00000150: 3097 a0bb b32b 8abb f37d c53c def4 243c
00000160: 36d1 113c dc15 47bb 620a 853c ae7b a73b
00000170: fc0b f2ba 8352 183c 6b2d 523c 8bfd 9e3b
00000180: 5894 e23b 62fc 103c 4f6b b03c 51df 503c
00000190: 1e7c b5bb 4a92 98bc 9804 04bc b5ad 4f3b
000001a0: 3bd2 993c 6abb 2fbc bd33 8a3c 46a5 873c
000001b0: b349 ac3a 40b9 1a3c 5fb3 ad3c 9606 913c
000001c0: 019b be3a 6a8e a53c 458c 8d3a 4456 8ebb
000001d0: f1c6 c23c 7ddb ac3c bea7 793b 446e e83c
000001e0: 80b2 9c3b 4e77 863c 2429 133c 235e 1a3c
000001f0: 6b70 a83b 024f 17bc d519 8ebc bb0d d03b
00000200: 40f7 203c 9bc2 e139 d8a9 e13c 26e7 e33b
00000210: f43a 8ebc b397 943c f8cd b33c 26a0 043c
00000220: 40b7 d63b 7591 883c 5b88 573c 0332 8e3b
00000230: 3d8d 1c3c b244 483b 7783 6f3b 9620 4dbb
00000240: c17a 82bb 4f7c b23c 8117 7e3c fe6e 823b
00000250: b821 333c c8ce 523b f3f1 333c 0b3d 83bc
00000260: 3e4f 553c a385 8139 5177 5e3c 2dfb 8a3c
00000270: 4c5d 8b3c 9f18 153b d343 493c 3c96 913c
00000280: 71f2 023c 3506 ec3a 4925 de3b b784 103b
00000290: 3154 233c a423 673c 8984 aa3b 79eb fc3b
000002a0: cbf8 9f3c b1de 8ab9 0f1f 283c 0272 443c
000002b0: 1d12 213c 89a1 983c acc1 6a3c 0081 8c3c
000002c0: a452 863c c08a 45bb 145b 073c 9fec 9b3b
000002d0: 5eb2 243c 51a7 b9ba 7489 443c 3487 8d3a
000002e0: 1655 f63a 56a0 213c 9f4a 92bb 6ee7 b53c
000002f0: 3285 133c d02d 03bc c3ff 8e3a e5a7 b83c
00000300: 4625 d63c 65cd cabb 804c ab3c feea 473c
00000310: 2bb5 c83b 73f4 633b 99d0 1c3c fbcc f73a
00000320: 9a4f f33c ebd7 a53b ee38 023c 1427 7a3b
00000330: c465 a23b b198 4d3c 86fe 3a3c 14ec 4b3b
00000340: 9aab 8d3b f751 053c 40b4 b33b 57d1 aa3c
00000350: 02cc 99b9 9317 cfbb 17d6 643b b07a 84bb
00000360: 2c5a 083a 8110 9bbc 6813 da3c 242b ffbb
00000370: dd5c 40bb 90e1 d4bb f6b8 773c 25c7 2d3b
00000380: d778 513c 5dbe 843c 2245 d83c db09 843c
00000390: e320 08bc 92ff 70bb d981 563b 94a5 8bba
000003a0: a05e 2b3c c49c 233c 8064 813c cec4 063b
000003b0: c235 b53c aeea a83c bc37 513c 1139 173c
000003c0: d06d b93c ebc9 df3b e0bb 3cbb 9b30 a23c
000003d0: b253 923c 0609 853c 6c3b dab9 502a 923b
000003e0: 7342 293c 10c2 833b 3b76 dbbb 75c6 4b3c
000003f0: 5572 67bb 37c5 c03c b390 cc3b 1071 ddba
0.00041527537 0.013271423 -0.0054172883 0.012989464 0.0047382577 -0.014254209 -0.01280147 0.0039804154
0.0059281713 0.0040330216 0.005967411 -0.0014151658 -0.0025190443 0.0029944896 0.009905812 0.019357998
0.012607903 -0.0012631585 -0.011251644 0.004425734 0.018862726 0.009853871 0.02130442 0.0009808528
-0.021766758 0.008814225 0.016407095 -7.644145e-05 0.022727765 0.0032827288 0.020237222 0.0034138316
0.0061563333 -0.0023345992 0.007887567 0.008556519 0.00067484286 0.014119892 -0.0047016535 0.0018833355
0.01610954 0.010575721 0.0023860687 -0.011369037 -0.0033783528 -0.0010257897 0.002790889 0.007349664
0.004415827 0.02469878 0.007410457 0.008931675 0.008141545 0.011636195 -0.008799492 -0.0024459583
-0.0010782129 0.018129274 -0.0035475905 9.692288e-06 0.02106383 0.0061563677 -0.0058048298 0.003109396
0.0065898662 0.0053613507 0.023517147 -0.0063047847 0.019817315 0.0068659284 -0.0033772227 -0.0025610656
0.012803182 0.005803604 -0.002049183 0.004028438 -0.006608123 0.0027470258 0.015596831 0.00679104
0.017124576 -0.014526634 0.018700175 0.008711332 -0.0049008355 -0.004216635 0.024107909 0.0100681465
0.008899977 -0.003037802 0.016240302 0.0051111793 -0.0018466706 0.009297016 0.012828211 0.004852002
0.0069146566 0.008849235 0.021535544 0.012748555 -0.0055384776 -0.018624444 -0.008057736 0.003168923
0.018777004 -0.010725835 0.016870374 0.0165583 0.0013144523 0.009443581 0.021203695 0.017703336
0.0014542044 0.02020951 0.001079925 -0.0043437798 0.023776503 0.021100754 0.0038094367 0.028372891
0.004782021 0.01641431 0.008981977 0.009421858 0.0051403544 -0.0092351455 -0.017346302 0.006349293
0.009824574 0.00043060337 0.027546808 0.0069550453 -0.017362095 0.018138742 0.0219488 0.008094823
0.006552607 0.016670922 0.013155068 0.004339458 0.009555158 0.0030558524 0.0036546865 -0.003129994
-0.0039819186 0.02178779 0.015508533 0.0039805165 0.010933332 0.0032166708 0.010982978 -0.016020318
0.013019381 0.00024704364 0.013578252 0.016965473 0.01701226 0.002275027 0.012284237 0.017771833
0.007992373 0.0018007221 0.006779347 0.002205176 0.009968803 0.0141076185 0.0052037877 0.0077185
0.019527813 -0.0002648733 0.010261311 0.011990072 0.009830979 0.018631713 0.014328402 0.017151356
0.016396828 -0.0030142516 0.008261461 0.004758432 0.010052292 -0.0014164244 0.011995662 0.001079774
0.0018793668 0.009864887 -0.004464462 0.02220508 0.009003924 -0.008006528 0.0010909963 0.022540996
0.02614082 -0.0061890357 0.020910501 0.012202023 0.0061251125 0.0034783154 0.009571218 0.0018905693
0.029701043 0.00506114 0.007948143 0.0038170265 0.004955979 0.0125486115 0.011413222 0.0031116055
0.004323435 0.008137218 0.005484134 0.020851774 -0.00029334432 -0.006319949 0.0034917647 -0.004042946
0.0005201425 -0.018928768 0.026620582 -0.007787125 -0.0029352226 -0.0064966157 0.015119782 0.0026516404
0.012785158 0.016204054 0.026400153 0.01611798 -0.008308622 -0.0036773426 0.0032731204 -0.0010654205
0.010459572 0.009986106 0.015794992 0.0020564082 0.02212036 0.020619716 0.012769636 0.009229914
0.02263537 0.0068294904 -0.0028798506 0.019798568 0.017862175 0.016239654 -0.00041624473 0.0044606104
0.010330784 0.004020937 -0.006697444 0.012437453 -0.003531595 0.02353154 0.0062428354 -0.0016894657

network_body._body_endoder.seq_layers.4.weight f4 [256, 256]
00000000: eee0 843c f7bf a0bd 8f29 00bc 1595 26bd
00000010: 4656 d83c 9077 363e 0888 5c3b f912 b83d
00000020: c425 a8bd b875 8dbd 32f6 a53c 7243 74bd
00000030: 668a cd3c 2d53 ccbd 5e7f a5bd 1bc1 dc3d
00000040: d6fd a0bc 99d2 353d 7a18 56bd 8c48 a23b
00000050: e826 9b3c bc6f 853d 086e 28bd f9e6 d13c
00000060: 91b5 73bd 3705 aabd 261e 56bd 9386 e33d
00000070: e5c3 233d 7970 8b3d 50c5 983d 26bc 783d
00000080: fd24 92bd deb3 553c 4885 87bc c65b f8bc
00000090: cbeb 18bd 98fa d7bd 5101 bf3d 7a7b adbd
000000a0: 9442 d53d b62e afbc 76de 53bc 6406 543d
000000b0: a88c e23c 0e90 933d 4376 92bc 0674 e0bc
000000c0: 16e2 92bd f479 433d cb5b 9b3d 6588 ca3d
000000d0: f8ac b43d 905a 2d3d 94f7 fe3c 290e 283d
000000e0: d609 183d d1e8 bd3c 7da5 8dbc 2fd1 303d
000000f0: bf61 d9bd 19ab 5d3d 1424 e3bc 13e2 60bd
00000100: 2134 13bd 241c 563d 9759 103d 9d0b 103e
00000110: 7afb 40bd 0b81 f43a 5543 d2bd 4945 68bd
00000120: dedb 943d 2e11 d53d 3b15 f2bc 905c 19bd
00000130: 2f97 f33b fc38 11be 30df 7b3c abd2 3abd
00000140: d092 b3bd 907b 2e3c 5247 8ebd 4744 7f3d
00000150: 04d8 6c3d 7e99 543d 5fbd 94bd a657 8d3d
00000160: f3fe ad3d 35f2 e23b 73bc 4d3c cb6a 233c
00000170: 4689 a03d 375c b43c 8de0 163c ac3c 003d
00000180: 0030 75bd cd47 1e3d 7cb2 413d a9cf 993c
00000190: 420b 053d 0488 b53d 2439 05bd 580c 253c
000001a0: 5c9c bcbd 6151 a83d 3469 b6bd 076a f9bc
000001b0: 553e eebc ffe0 823c be4b 22bd d88a 733d
000001c0: 2cc7 dbbb d6ec 62be 1424 dabc f0a1 fd3d
000001d0: e28a 5ebd cb29 253d 02dd 663b d448 9f3c
000001e0: ed09 01be 14c3 c4bd 6eb0 9c3b 2c6c 653b
000001f0: e34f babc 65fb 863a c0ab 28bc 4d36 64bd
00000200: a352 14bd 9d52 333d e97d 533d 49aa a33b
00000210: cd47 233c c247 90bb 26cc 08bd 6386 703d
00000220: e2cc 253c 90fe aebd 0c21 9b3d 23a8 7d3d
00000230: a46e 9d3c 06b3 babd ea80 a8bc f744 213e
00000240: 3517 123d 8981 04bd 7487 e63c 2d76 ecbb
00000250: 9c77 84bb 1647 4a3e 6869 0cbd 0ea0 b5bd
00000260: 763e 8ebd f243 00be 321c 613b af11 b6bd
00000270: fb52 38bd 35a9 3ebc 504f fdbc dc3c 203d
00000280: 9aac d6bc 0b9a f23c 6ad0 d23d 7df3 813d
00000290: 9f0c 303d 43c5 2abd e7f2 763d a13f 93bc
000002a0: 6c37 80bc 5974 143d c562 03bd 91bf ac3d
000002b0: c4c9 9f3c 242e 0e3c f547 69bd 7fae b23d
000002c0: 555a 60bd da51 d6bd e7cd cb3d 0b47 85ba
000002d0: 778c 5bba c63a 17bd 9a2b d53c d69e 04bd
000002e0: ed05 c9bd b7bb fabc bff1 6c3c e307 c8bd
000002f0: 591f 753d a2e6 c5bc 3dbd b23d 2bf3 233d
00000300: e975 6e3d 7e6c e9bd b785 d5bc 44aa b3bd
00000310: 368c 34bd 80a0 b13a d234 a13d 726b 83bc
00000320: f4b9 d2bc 90fe 8abb c192 b9ba 2985 653c
00000330: ab7b ae3d 25bd f7bc f05c 9cbd b846 d4bc
00000340: 5ae2 d0bd 3adf 8d3d cae0 903a 0141 81bc
00000350: 5b37 853d 1646 aa3c 6555 423d 718d c73d
00000360: d195 473d 5336 213e c259 1c3d c513 903d
00000370: 673f c6bc 8fb2 45bd de61 ba3c b91e 86bd
00000380: e0a9 cebd 0c83 27bd d264 63bd f0dc a53d
00000390: 1c04 1abd 1e95 93ba c3d7 9a3d a7f5 a2bc
000003a0: bc07 e43b a270 9a3d 4765 c03c dc68 55bd
000003b0: 3a43 e5bc e66f 27bd 02c8 bb3d 4931 96bc
000003c0: 8d2c 6a3d 24da 7bbd 0472 463c fd16 5dbd
000003d0: ee53 eb3c 66ad 453d 4c7e 1f3d d95e 943c
000003e0: e492 81bd 1cbd 3b3d 2604 bfbd 81ec d639
000003f0: a287 0ebd 7974 8dbd 8199 93bb d575 0bbd
0.016220536 -0.078491144 -0.007822408 -0.04066952 0.026408326 0.17819047 0.0033650417 0.08987994
-0.08210328 -0.06907219 0.020258997 -0.059634633 0.025090408 -0.09976802 -0.08080934 0.107790194
-0.019652288 0.044390295 -0.052269436 0.004952496 0.01893945 0.06515452 -0.04112056 0.025622832
-0.059499327 -0.08301776 -0.052274846 0.11109652 0.03998174 0.06808562 0.074595094 0.060726307
-0.07135961 0.013043372 -0.016543046 -0.030317198 -0.037334245 -0.10545844 0.09326423 -0.08470817
0.104130894 -0.021384578 -0.012931457 0.051763907 0.02765496 0.072052106 -0.017878657 -0.027399074
-0.07172029 0.047723725 0.075858675 0.098892964 0.08822054 0.042322695 0.031123914 0.04102913
0.037118755 0.023182305 -0.017290825 0.043168243 -0.10614347 0.05411825 -0.027727164 -0.0549031
-0.035938386 0.05227293 0.03524169 0.1406693 -0.047114827 0.001865418 -0.10266749 -0.0567067
0.07268499 0.104036674 -0.02955114 -0.03744179 0.007433794 -0.14181894 0.015373036 -0.045611065
-0.08768237 0.010649577 -0.06947197 0.062320974 0.057823196 0.051904194 -0.07262682 0.06901483
0.08495893 0.006925846 0.012557137 0.009974192 0.07838683 0.022016628 0.0092088105 0.03130786
-0.05986023 0.038642693 0.047289357 0.018775778 0.03248144 0.088638335 -0.032525197 0.010073744
-0.09209511 0.08218647 -0.08906785 -0.030446066 -0.029082457 0.015976427 -0.039623015 0.059458584
-0.0067070927 -0.22160658 -0.026628532 0.12384403 -0.054331668 0.04032306 0.0035226946 0.019443907
-0.12601443 -0.09607521 0.0047817742 0.0035007102 -0.022743171 0.001029831 -0.010294855 -0.055715848
-0.03621162 0.043779958 0.05163375 0.004994665 0.009965849 -0.0044030854 -0.033397816 0.05872191
0.010119649 -0.08544648 0.075746626 0.061927926 0.019217797 -0.09116177 -0.020569284 0.15748964
0.035666663 -0.032350097 0.028140761 -0.007216236 -0.004042579 0.1975368 -0.03428021 -0.08868419
-0.06945507 -0.12525919 0.003434908 -0.08890092 -0.04500101 -0.011637022 -0.030921608 0.03912054
-0.02620535 0.029614469 0.10293658 0.0634527 0.042980786 -0.04169203 0.060290243 -0.017974677
-0.015651427 0.03624377 -0.032076616 0.08434976 0.019505389 0.008677993 -0.05695339 0.08724689
-0.054773647 -0.10464831 0.09951382 -0.0010168267 -0.0008375118 -0.036921285 0.026021767 -0.03237804
-0.098155834 -0.030607088 0.014461934 -0.09767129 0.05984435 -0.024157826 0.087275006 0.040026825
0.058217917 -0.11397646 -0.026064737 -0.0877271 -0.044079028 0.0013551861 0.07871403 -0.016042445
-0.025723435 -0.004241772 -0.0014158116 0.014008799 0.085196815 -0.030241558 -0.07634914 -0.025912628
-0.10199423 0.06927343 0.001105332 -0.015778067 0.06504699 0.020785373 0.04744472 0.09743775
0.04872686 0.1574338 0.038171537 0.07035021 -0.024200154 -0.04826599 0.022751745 -0.06548829
-0.10090995 -0.04089646 -0.05551607 0.08098781 -0.037601575 -0.001125965 0.075606845 -0.019892527
0.00695893 0.07541014 0.023485793 -0.052101955 -0.027986158 -0.0408782 0.09169008 -0.018334048
0.057171393 -0.061487332 0.012112144 -0.053977 0.028726544 0.04826107 0.038938805 0.018111633
-0.06326845 0.045834646 -0.09326963 0.0004099347 -0.03479732 -0.06906981 -0.004504383 -0.03404792

network_body._body_endoder.seq_layers.4.bias f4 [256]
00000000: cbc8 4abb d9fc 72bb 6ce3 9b3c ef82 373b
00000010: a138 063c ab97 3d3c b676 173b e868 253c
00000020: ffc9 083c cc07 643a dc90 953b 3413 ad3b
00000030: 303b e23a 3a1a a6bb 6055 6b3a 8dbb 0dbc
00000040: 7a37 1c3b 6260 97ba eb4b 0c3c 0385 9c3c
00000050: 20f6 8d3c 11c8 b13c 32e5 e53b e304 a03c
00000060: fe40 3b3c 29ae 1dbb 2128 8c3a a4d2 02b9
00000070: c1f8 bb3b 9ea9 f038 2975 f03b 6659 b5ba
00000080: 39f2 df3b ea31 523a c5e8 15b9 cdd5 c73b
00000090: 87eb f2ba 3862 c2ba 2e88 163c fe7f 3a3c
000000a0: 1e0c 8ebb 7957 843c 0f79 873c 7703 b53b
000000b0: 166c 9d39 ac5e 9b3a 264b 4ab9 68b9 2c3b
000000c0: 9517 933c 55a0 0b3c a3db 7e3c e56c 8c3b
000000d0: 716c 543a 7311 44bb 2129 56bb f77b 553c
000000e0: 6f5f 283b b430 953a bdd7 a83b cf3e 47bb
000000f0: 8806 ae3c 9f33 babb 9b62 353c 865d 1c3c
00000100: 3f1f 78bb 58c2 d43b 6b57 fdb9 ea92 a4bb
00000110: f21e 583c 8f4e 743c 65ed a73b 3e7e 7f3c
00000120: 94cf 9239 95f9 4a3b b31c d9ba 42f7 223b
00000130: 0aba 9fba 1f08 203a ff11 613b 9685 a53c
00000140: 3043 1b3b 675e 513c 4fcf 203c b3e6 4b3c
00000150: 40d1 93bb d960 0d3c d611 593c 9bfe 9a3b
00000160: 0a69 48bb bb0e 0d3a 7d72 1f3b f14f 9e3c
00000170: 52b6 6a3c cc57 f4ba 5f0d 93bb 5366 d23b
00000180: a169 b2ba 318c 293c 9d71 b33a 4130 a03a
00000190: 39c2 3b3c 2190 153c 837a 27bb 21a7 ae3a
000001a0: 8f9e 313c 7cad 103b bc41 973b 4e2f 5b3b
000001b0: 2fc5 2a3c 7edc 973a a98f bb3a 340a 053c
000001c0: 9781 2e3b b26d a53c 6867 053b 1944 5639
000001d0: 64f4 0e3c 5ce9 1e3c 20d4 ae3c e168 213c
000001e0: 9bd7 54ba 1715 01b9 f7b1 20bb cf27 bfba
000001f0: 9a3f f63b 6960 dcba 4f51 583b d209 4ebb
00000200: 46bf 733a c3d0 913c 50c5 c73b 2aa0 3ebb
00000210: b476 1f3b b279 853b 3a33 173b 0a02 e53b
00000220: de5c 243b eb55 9d3b a173 b13c 7bed 9d3b
00000230: 8993 853b e99b c8ba 6f73 00bc d4f4 473c
00000240: 42d9 0cb9 e60c f83b df81 123c 6e19 9c3a
00000250: 6444 c9b9 a7c0 2b3c b94f 523c 8b2c feba
00000260: aa5d 31bc 5a33 2c3c 2a19 ca3b ca87 7bbb
00000270: 7f87 cc39 ac25 2c3c 3133 113c 7f33 c73b
00000280: e9f3 a0bb 15ac 3a3b 5cd6 37ba 0d72 013b
00000290: 87a2 8f3b c82b 2abb 732e 223c c074 0b3a
000002a0: cd5d a53b e197 cb39 bee9 173b 4377 3e3c
000002b0: a7a6 813c 7c27 b2b9 16f5 143c 9081 113c
000002c0: 1810 953b 9474 1c3c ffdc 703c 5a2b c93b
000002d0: 4f11 7e3c 26e8 d03b 89a0 173c 63cd 123c
000002e0: cd5a eaba e2e5 353c 8dc3 a239 ad32 1c3c
000002f0: 7161 9138 29d9 0a3c 8e37 0d3c e577 513c
00000300: b3ac 263c e663 983c 0a41 573c aae3 283c
00000310: 49bd d13a 105c 1fbb 3061 9bba 14b7 2a3b
00000320: 7b0e 733c de1c be39 4319 963c 1b1a b23b
00000330: ce8c 823c 04bc c33b fd6d 3abb 8e51 8f3b
00000340: 6e84 3a3c 620e e63b 3f64 e83b bc2e ee3b
00000350: fc76 b63c 0b5a 5fbb dc84 333b d97d c23b
00000360: 5507 533b 7f0a 643c 9ff7 a23b a9d7 a83a
00000370: 87a8 733c b8cd 833b 5dd2 873c 0d77 a13c
00000380: 3dd6 0d3c cbfa e2b9 5b98 643c fb01 d4ba
00000390: 6cb6 0f3a a163 18ba 7043 ed3a 4096 e73b
000003a0: b78a 743c fbcb 0239 3a72 08b9 e648 94ba
000003b0: ab02 9e3a f601 4f39 960b 1b3c 9d0c 153c
000003c0: c9a4 173c e4a4 dc3a 8df3 8dbb 5a7c 503c
000003d0: a054 a1bb 4af3 553b 6156 d1bb 9f1a e93a
000003e0: 5972 813b 7375 5abb 2857 bb3b e6f6 153c
000003f0: be1d 2abb 2b47 e83b 3e91 05bc ff0a 0b3b
-0.0030942436 -0.0037076978 0.019029342 0.0028001626 0.008192212 0.011571805 0.0023111529 0.010095812
0.008348941 0.00086986716 0.0045643877 0.00528183 0.0017260071 -0.0050690444 0.00089772604 -0.008650673
0.0023836778 -0.001154911 0.008563022 0.019106394 0.017329276 0.021701844 0.0070158476 0.01953358
0.01142907 -0.0024060106 0.0010693112 -0.00012476236 0.005736441 0.000114756855 0.0073381853 -0.0013835847
0.006834295 0.0008018302 -0.0001429646 0.006098485 -0.0018533327 -0.0014830297 0.009187741 0.011383055
-0.0043349406 0.016154991 0.016537217 0.0055240947 0.00030025904 0.0011853776 -0.00019292216 0.0026355628
0.01795558 0.008522113 0.015555295 0.004285442 0.0008103317 -0.0029917627 -0.0032678323 0.013030044
0.0025691648 0.0011382313 0.005152671 -0.0030402427 0.021243349 -0.0056824232 0.011070873 0.009543782
-0.003786042 0.006492894 -0.00048321052 -0.0050223963 0.013190972 0.014911308 0.005124735 0.015594063
0.00028001948 0.0030971516 -0.0016564339 0.0024866615 -0.0012186181 0.0006104726 0.0034343002 0.0202053
0.002369117 0.012778855 0.009815051 0.01244514 -0.0045110285 0.008629047 0.013248881 0.0047300584
-0.0030580186 0.0005380918 0.0024329715 0.019325228 0.014325695 -0.0018641888 -0.004487678 0.0064208894
-0.0013611802 0.010348366 0.0013690476 0.0012221412 0.0114598805 0.009128601 -0.00255552 0.0013324955
0.010841026 0.002207606 0.0046159904 0.0033444944 0.010422989 0.0011586098 0.0014309782 0.008120108
0.0026627535 0.020193908 0.0020355824 0.00020433999 0.008725259 0.009699192 0.021341383 0.009851665
-0.0008119286 -0.00012310255 -0.0024520138 -0.0014584007 0.007514906 -0.00168134 0.0033007448 -0.0031438959
0.00092982163 0.01779974 0.0060965195 -0.0029087164 0.0024332227 0.004073345 0.0023071305 0.0069887685
0.0025079767 0.004801502 0.021661581 0.0048195696 0.0040764255 -0.0015305254 -0.0078400215 0.012204368
-0.00013432375 0.007569897 0.0089420965 0.0011909434 -0.00038388663 0.010482944 0.01283639 -0.0019391937
-0.010825554 0.01051029 0.0061675506 -0.0038380497 0.00039010865 0.010507029 0.008862303 0.006079137
-0.004911889 0.0028483917 -0.0007012838 0.0019751817 0.0043833884 -0.0025966037 0.00989877 0.00053198263
0.0050465823 0.00038832336 0.0023180093 0.011625114 0.015826536 -0.00033980224 0.009091636 0.008880988
0.0045490377 0.009549279 0.014701127 0.006139201 0.015507056 0.0063753305 0.009254583 0.008960101
-0.0017879844 0.011102172 0.00031044745 0.009533566 6.932289e-05 0.008474627 0.008619202 0.012784933
0.010173011 0.018602323 0.013138065 0.010308186 0.0016001846 -0.0024316348 -0.0011854526 0.0026049064
0.014834995 0.00036261132 0.018322593 0.005435241 0.015936282 0.005973341 -0.0028446906 0.0043737357
0.011384113 0.0070207575 0.0070920284 0.0072687548 0.022273533 -0.003408077 0.0027392423 0.0059354124
0.0032200415 0.013918518 0.0049733664 0.0012881655 0.014871723 0.0040223263 0.016579801 0.019710088
0.008657035 -0.00043292934 0.01395234 -0.0016174907 0.00054822 -0.00058131857 0.0018101763 0.0070674717
0.01492565 0.00012473755 -0.00013012523 -0.0011313229 0.0012055238 0.00019741789 0.0094632115 0.0090972455
0.009255596 0.0016833809 -0.004332012 0.01272496 -0.004923418 0.0032646232 -0.006388471 0.0017784423
0.003950399 -0.0033334165 0.005717177 0.009153103 -0.002595767 0.007088562 -0.008152304 0.002121627

action_model._continuous_distribution.log_sigma f4 [1, 4]
00000000: 8ef6 a8bc be3f 36bd b77a e1bc 20fc 823b
-0.020625379 -0.044494383 -0.027524335 0.003997341

action_model._continuous_distribution.mu.weight f4 [4, 256]
00000000: 70e8 983c c57e 323c ce33 18bc 139e d43c
00000010: c169 eabc c624 d03c 962b 053d ca80 3d37
00000020: 9528 8e3c f7cf fabc 6e8c 5fba 544b 20bd
00000030: fd85 0ebc d6d4 993c f1b2 b5bb 79c8 f9bb
00000040: 29ef 16bd c3fc 403b 62d7 81bc f307 d53b
00000050: 17bb 183d ce00 17bc 312f 8fbc cbdf 94bc
00000060: 6860 06bb 9504 5cbc fce2 7fbc 6d33 e63c
00000070: 87e8 a93c 2c63 4a3c 6382 2239 887e 9e3c
00000080: 35f2 afbb 6dcc 863c bc7d aabc 9857 d5bc
00000090: 9e6d 0f3d eec5 1bbb eafe eebc 00bd cbbc
000000a0: e25c 883c 0216 6c3c ca1b 82bc fca0 b93c
000000b0: cebc 793b f4d4 39bc 2a48 c0bb 081d c6bc
000000c0: 768e f1bc fca8 c83c c6c4 153c ae4f f73c
000000d0: b94f 36bb 0fab 9f3c 4a63 6e3b 945d e23b
000000e0: 03ff 1fbc 1c32 87bc 8d7b 63bc 5593 a33c
000000f0: 1ab8 9ebc 47eb a2bb a997 9ebc 4d4c 0bbd
00000100: b39f c93c 96a4 b0bc 2dcc a1bb aadf c13b
00000110: a02c 283b cc38 e03a 6330 2d3c 8724 8b3c
00000120: 6e50 4abc 8542 4a3b 1e80 df3c 22bf 943c
00000130: 354b 95bc f088 18ba f66b 6fbc a33f 3b3c
00000140: 5bc0 08bd 4544 7a3c c669 25bc 533a 8f3c
00000150: f374 583b b093 e93c 6c97 9cbc e1fa 22bb
00000160: ef6a 213c 73d3 0c3d d233 03bd d747 d43c
00000170: 9788 47bc 7f37 0f3c 3121 763c 111e 4bbd
00000180: 2887 b43c 3f5b a33c e4f6 2aba 3ebe 823c
00000190: b83c d4bc e3f8 a63b 8e86 a9bb c2b6 0e3d
000001a0: 336e ed3c 7d6f 663c e413 273c 92a5 1f3d
000001b0: df48 aebc 3dbd 07bc fec8 3abb 9fb9 34bd
000001c0: 137a 6fbc 3f2f c2bb 8f11 0bba 69ad b9bb
000001d0: 115e 7a3c de8c 033c 3dd1 d9bb 4830 d4bb
000001e0: 0e00 713a 30b7 ef3b 5c67 c53c f203 883c
000001f0: db33 82bb 3cd9 fa3c 32f3 8bbc 66db b03b
00000200: c0b8 0bbc 27cb 0cbc fd7d 9d3c 3427 963c
00000210: 29b6 90bc 581a c4bc e45c 0e3d 1ee4 ba3b
00000220: a165 15bd 7bec 1abd f523 243c 4331 3bbc
00000230: 524d 27bc 9579 513c d645 b03a 1a8c 14bc
00000240: 69a0 9dbc 38b0 b1bc 2c58 f43a 418c 093d
00000250: 9aee 76ba ccd1 b63c e824 9a3c 2a5c 07bc
00000260: e3e7 acb9 d34f 28bb 941b 123d f7cb eebb
00000270: 559e c7ba 30c0 6cbc 193b 9c3c d5cb ebbc
00000280: b8b1 4f3a a2e2 dbbc c121 05bc 353c 2bbd
00000290: 6826 01bc bced f33b a440 083c c9d3 db3a
000002a0: 3043 23bd 783f 8abc 460d 0dbc 87b9 d2bb
000002b0: 64e9 0dbd e755 2abc d4e3 c03c a071 bb3b
000002c0: 6c5a bdbb 4d37 b0bc 7452 bebb 0aa6 31bc
000002d0: 7802 80b9 3311 debc 8c26 0e3b 1221 1d3c
000002e0: da7a ab3c 9ab9 983c 7826 9fbc be2d f5bc
000002f0: f07c 5b3b efe6 bf3c 4426 9c3c 804c 5c3b
00000300: e45f fdbb d663 26bd 47c9 2fbd 9b7f 413c
00000310: 3868 03bd d117 d0bb 7acb a53b f3ec e639
00000320: eeae 0fbc 3af5 44bc 0135 e13c acbc f5bc
00000330: 99dd dcbc 7dba 8ebb dc49 f6bb d644 e1bc
00000340: 413e bfbc ee36 823c 954b 103d 4960 9bbc
00000350: 028e 0fbc 9292 883b 84cc 413c d17a 113d
00000360: df87 acbc da0d be3c 3efc 10bd 4518 8a3c
00000370: 6e11 993a b51d b53c 2903 47bc 2da6 c2bb
00000380: cbfa a1bc e775 e13c bf9d 24bb 325e e7bb
00000390: 6ac5 10bc eb98 b0bc 245d ab3b ddb6 14bd
000003a0: 4492 0e3d 8e2f 103c bdb3 083c 14f0 d9bb
000003b0: 7b3a fd3b fc9e 32bc 743e 07bd 41e7 963c
000003c0: ac5c 373d b71b d3bc a182 3e3b 95de a0bc
000003d0: 6f90 0d3c f957 3b3a 6aca ed3b a66c dc3b
000003e0: a6bf 76bc ea89 833c 4976 ca3c 1354 243c
000003f0: 3f18 dabc b95e 07bd ef2b 983c ecdc 2f3c
0.018665522 0.010894482 -0.009289695 0.025954282 -0.02861488 0.02540816 0.03251227 1.1295264e-05
0.017353335 -0.030616743 -0.00085277006 -0.03913434 -0.0086989375 0.018778246 -0.005545013 -0.007622775
-0.036849175 0.0029447533 -0.015849773 0.0065011918 0.037287798 -0.0092165 -0.017478557 -0.018173119
-0.002050424 -0.013428827 -0.015618082 0.028100694 0.02074076 0.012352746 0.00015498097 0.019347444
-0.0053694495 0.0164549 -0.020811908 -0.026042745 0.03501665 -0.0023769098 -0.029174287 -0.024870396
0.016645852 0.014409544 -0.015882391 0.022659771 0.003810692 -0.011342276 -0.0058679776 -0.024183765
-0.029486876 0.02449464 0.009141153 0.030189361 -0.0027818514 0.019490747 0.00363751 0.006908128
-0.009765389 -0.016503386 -0.013884437 0.019967714 -0.019374896 -0.004971895 -0.019359427 -0.034008313
0.024612283 -0.021562856 -0.0049376697 0.0059165554 0.0025661364 0.001710677 0.010570618 0.016985191
-0.0123482775 0.0030862403 0.02728277 0.018157545 -0.018224338 -0.0005818745 -0.014613142 0.011428746
-0.03338657 0.015275066 -0.010096019 0.017483866 0.0033028692 0.028512806 -0.019115172 -0.0024868774
0.009852155 0.03438134 -0.03203184 0.025913162 -0.012178562 0.008741259 0.015022562 -0.04958922
0.022037104 0.01994097 -0.0006521775 0.015959855 -0.02590786 0.0050955876 -0.005173511 0.03484226
0.028983211 0.014064667 0.010197613 0.03897626 -0.021274982 -0.008284864 -0.0028501148 -0.044122335
-0.014616507 -0.0059260423 -0.00053050456 -0.005666424 0.015281216 0.008029191 -0.0066472576 -0.006475482
0.00091934286 0.007315539 0.024097137 0.016603444 -0.003973467 0.030621164 -0.017083738 0.005397248
-0.008527935 -0.008593357 0.019225115 0.01832924 -0.017664986 -0.023938343 0.034756556 0.005703463
-0.036473874 -0.03782318 0.010018338 -0.011425319 -0.010211306 0.012785335 0.0013448547 -0.009066606
-0.019241529 -0.021690473 0.0018642 0.033581022 -0.00094197097 0.022316836 0.018816426 -0.00826172
-0.00032979166 -0.0025682345 0.03567083 -0.007287498 -0.0015229682 -0.014450118 0.019071149 -0.028783718
0.00079229055 -0.026841465 -0.008125723 -0.041805465 -0.007882692 0.0074441116 0.008316193 0.0016771491
-0.039858997 -0.016875967 -0.008609122 -0.006430808 -0.034646407 -0.010396457 0.023546137 0.0057203323
-0.0057786014 -0.021510744 -0.005808169 -0.010842809 -0.00024415902 -0.02710781 0.0021690456 0.009590404
0.020932604 0.01864319 -0.019427523 -0.029929038 0.0033491217 0.023425547 0.019061215 0.0033614933
-0.0077323783 -0.040622555 -0.042916562 0.011810209 -0.032081813 -0.0063504954 0.0050596567 0.0004404556
-0.008769734 -0.012021357 0.027491095 -0.029997192 -0.026961135 -0.004355727 -0.007516129 -0.027498644
-0.023345115 0.015895333 0.03522833 -0.01896681 -0.008761885 0.004167863 0.0118285455 0.035517517
-0.021060882 0.023199964 -0.035396807 0.016857276 0.0011678168 0.022108892 -0.0121467495 -0.00594022
-0.019772908 0.02752204 -0.0025118438 -0.0070607895 -0.00883613 -0.021557292 0.005229609 -0.036307205
0.03480746 0.0088004 0.008343634 -0.006650934 0.0077279187 -0.010902163 -0.033018544 0.018420817
0.044766113 -0.025770051 0.002906956 -0.019637385 0.008640393 0.0007146593 0.0072567957 0.006726819
-0.015060341 0.016056973 0.024714606 0.0100298105 -0.02662289 -0.03304932 0.018575637 0.010733824

action_model._continuous_distribution.mu.bias f4 [4]
00000000: 6ae2 87ba 0e4f 0fbc b376 743b 9050 f8b9
-0.0010367159 -0.008746875 0.0037302196 -0.0004736227

onnx::Div_66 f4 [51]
00000000: 8866 d13e e3e0 3c3e 392d 833e f7dc d83e
00000010: 2983 383e 849a 833e c907 d83e 7f81 343e
00000020: 6843 823e 8447 dd3e ba26 403e 27dd 823e
00000030: e9d1 db3e fbd5 3b3e 2c67 803e f263 e23e
00000040: 0d26 513e 7645 843e 9441 e13e 4cc8 4a3e
00000050: 7d6b 823e 513d e83e 2ca4 543e 6e7d 853e
00000060: 3df2 e93e 4bff 513e 3810 853e c99f eb3e
00000070: 3533 513e aeee 873e d816 f13e a5f6 623e
00000080: 0961 8b3e 1d77 ed3e ddb6 713e 5b19 8f3e
00000090: a677 f73e 3dd3 763e 46a8 933e 0ad4 ee3e
000000a0: a608 853e 3ec7 923e ed9e f93e d4dd 923e
000000b0: 745f 9d3e 3267 ed3e 82c5 8c3e 531c 933e
000000c0: 1b7f f73e 99a2 943e c345 9d3e
0.40898538 0.18445162 0.2562044 0.42356083 0.18018784 0.25703824 0.4219344 0.17627524
0.25442052 0.43218625 0.18764773 0.2555935 0.42933586 0.18343346 0.25078714 0.44216877
0.20424671 0.25834244 0.43995345 0.1980297 0.25472632 0.4535928 0.20765752 0.26072258
0.45692626 0.20507543 0.25988936 0.46020344 0.2042969 0.26549286 0.4708774 0.221644
0.2722247 0.4637994 0.23604913 0.27949032 0.48333472 0.24104019 0.2883932 0.46646148
0.2598316 0.28667635 0.48754063 0.28684866 0.30736887 0.46367794 0.27494437 0.28732547
0.4833916 0.29030302 0.30717286

onnx::Div_69 f4 [6]
00000000: cf3c 1d42 9cd8 2240 d404 c541 a965 1242
00000010: a612 833a b647 af41
39.309383 2.5444708 24.627357 36.599277 0.0010000065 21.910015
