Assets/config/results/ppo/RL_Model/RL_Model-499978.onnx (onnx, 597417 bytes, 13 tensors)

network_body.observation_encoder.processors.0.normalizer.running_mean f4 [51]
00000000: 3c12 4f3f 0bf2 323d 3fd1 dc3e f09e 4b3f
00000010: aeff 2a3d 989d da3e fdb9 4c3f 2f5e 2a3d
00000020: 8063 db3e e8fd 483f c7c7 353d 4020 dc3e
00000030: a8c3 4b3f a956 333d f543 de3e 0a62 433f
00000040: a0c8 4c3d ac5e e03e b552 473f 6c75 473d
00000050: 45f3 e43e 643a 3e3f 3fd8 553d a19b e83e
00000060: 3c43 3e3f 37b0 653d 051b ee3e 7771 3a3f
00000070: 2488 583d 1ac9 f43e c20e 343f 24c3 823d
00000080: 112a fc3e 7fc3 363f dbb2 943d bd0a 023f
00000090: 252d 283f 9e8c a03d da6d 063f 4e05 323f
000000a0: 5b59 b73d f9c6 043f 1771 203f f58e db3d
000000b0: c376 0d3f c7f8 303f f456 d03d 9615 063f
000000c0: cb22 233f b3f5 e43d bd6d 103f
0.808872 0.04368786 0.43128392 0.79539394 0.04174774 0.4269836 0.79971296 0.041593727
0.4284935 0.7851243 0.044379976 0.42993355 0.7959542 0.043783817 0.43411222 0.7632147
0.04999602 0.4382223 0.77860576 0.048695967 0.4471685 0.7430785 0.05220818 0.45431235
0.7432134 0.056076255 0.4650499 0.72829384 0.05286421 0.47809678 0.7033502 0.06384876
0.49250844 0.71392053 0.072606765 0.50797635 0.65693885 0.078393206 0.5251137 0.69539344
0.0895259 0.5186611 0.6267256 0.10720626 0.5525934 0.69129604 0.10172835 0.5237669
0.63724965 0.11179676 0.5641745

network_body.observation_encoder.processors.1.normalizer.running_mean f4 [6]
00000000: e3df d7bf c11a 4b40 b1f2 3fc2 8423 29c1
00000010: 0000 0000 0026 2cc2
-1.68652 3.173508 -47.987003 -10.571171 0.0 -43.03711

network_body._body_endoder.seq_layers.0.weight f4 [256, 57]
00000000: 21bb 77be 08b3 0a3d 06fd 563d cc14 033e
00000010: 76b9 f83a 086f 5dbe 4107 c6bc 948c f8bd
00000020: 9d41 933d e003 ccbd 69de 5d3d 44ae 6a3d
00000030: 18b8 5dbd fd3b 4cbd ae60 80bd ed3f fc3c
00000040: 54d6 82bd 57d7 3f3d f31e e4bd 449d b3bc
00000050: baf3 903b f229 89be 9e01 8ebc 0a7f 9a3d
00000060: 48e0 31bd b281 f03d eb50 153e 977b 873b
00000070: e208 073c 4218 b93d ee52 283e 08b2 003e
00000080: a2e2 cd3d 82f7 f7bd 4ecd 0c3e 32d6 87bd
00000090: 804f 573e b06f fdbc 780b 503c d53f 7f3e
000000a0: f83d 103c 44ba 13bd 2685 7dbc 27c9 1abe
000000b0: 0540 453c 80ee eebd eca8 ba3c 88c6 9e3c
000000c0: 76d8 853e 3a5b a7bd 0e5e 203c 29f2 0d3d
000000d0: 4cda 133e ae3f 3ebe 9e19 06be 1f1c ecbd
000000e0: 01cd 95bc e7c8 603d d45a 1e3e 1191 153e
000000f0: bb59 a33e e1ab f8bd 7a3c 2ebd 461a 85be
00000100: 7931 273d 6941 6ebc 3561 64bd f15f 813e
00000110: 2cf5 6bbc 5cf7 8c3e 2ab8 023e 7ffd 073e
00000120: 581a 803e 552c 18bc 322c 68bc b171 423e
00000130: 53f0 003e fc67 1bbe 4630 503e 329c 943e
00000140: de94 9d3d e19e c43c 835e e93b ce8a c93c
00000150: c172 7f3d 0c07 86be bddc 0b3e 7d47 10be
00000160: 7bf7 9d3c 88cd c2bd 9683 1abe daa9 c8bd
00000170: d1b2 d13d 66e8 44bd 63fd 203e 4823 9a3d
00000180: 1d9a 57be 20d1 37bd b69a 1dbd 1719 553d
00000190: 5384 c6bd 39c6 6e3e 4646 2d3d 617a 92bd
000001a0: 9b7a b53d 9dd2 81bc 91f4 efbd 2c0b 38be
000001b0: dff5 94be fa47 1f3e effc 7ebe 495d 833d
000001c0: 2c57 33bd da54 623e 154f 1dbd 5f49 483e
000001d0: 3e19 a4bd 801a 573e 0118 0f3e 9745 d4be
000001e0: bb8f 9b3d 2f4d 38be 4f11 0abe 3ffc 0c3e
000001f0: b80e 453d 768b 5d3e 384b 473d c431 de3d
00000200: 2e20 a83d 6954 5c3c 229a 563c afaa e83d
00000210: f530 ffbc 4144 28be 0a6a a5bc 8d22 74bd
00000220: 32e6 0ebe 5f0a 87bd 42b7 2ebd e455 17be
00000230: 184b 633e a7cb 0dbe fbee afbd 26ee 2ebe
00000240: b786 cdbd 3c7d 7cbe ceb2 613d 04b6 b3bd
00000250: 6716 cc3d 5f95 d43d 14d6 873d 72d9 7a3e
00000260: a517 1cbe 5b55 2b3d ed16 59bb 15b5 e2bc
00000270: b7fe b93a 3831 45bd 6c04 99bd 8bbd ae3d
00000280: b32a 22be 8d31 85bc 553e 053e b66e 4fbe
00000290: 1fb2 bdbd ffa0 91bd d7bf 83be 47c9 ad3c
000002a0: e947 5f3d 66e3 463d 246b 1f3d aa21 04be
000002b0: 24da 97bd 826f 20be 546a c53d c9cd 043d
000002c0: acbb 803e 2519 1fbe 7a8a c83d a56f 8e3d
000002d0: 7c83 10be c262 643c defa 9ebd 9e72 aabe
000002e0: a3d9 5b3e 3878 45bd 9c26 a5bd b152 d0bc
000002f0: e2a1 5ebd 2e12 8fbd 48af 743d ebbf 163e
00000300: fcf0 9dbc a94a f03d 3202 78bd 4125 aa3a
00000310: 55d7 e73d 4fa2 e63c 0b0c 813e c118 87bd
00000320: 9c85 453e fa16 963d 34a7 35be 1595 363d
00000330: 5bf6 b2bb aa1c 11bc 54e1 8a3d cf0c 49bd
00000340: d291 acbd cf92 22bd 14c7 493e 0b65 bcbe
00000350: 84ee e6bd 968d 23bd ec8d bbbd 619d 99bd
00000360: 0e65 1e3e dd28 bfbc 7acc c0bb 1ff3 ab3d
00000370: eb4d 393d a98b 8b3c cc05 12be a4f8 da3d
00000380: 09e7 913c d23a 2fbe 29e7 603d 4f17 90bd
00000390: 31d6 883b 0227 0bbe 824e e7bd e4ec 0bbe
000003a0: da55 2bbd 9845 cdbd 468c 77be b9cd 5a3e
000003b0: 3800 a3bb a9f6 193e 9312 35be 92c8 183e
000003c0: 18a1 013e 0ddf a03d 4cb1 45be 946c f93d
000003d0: 67e2 3b3e 688f e73d b852 9fbd ba34 10be
000003e0: 5df7 2dbe 0c26 813d 2354 1ebe 3d3d 4e3d
000003f0: e8aa e8bd dc0b b13d f5b8 a53c ac86 8f3d
-0.24192478 0.033862144 0.052487396 0.12800902 0.001897617 -0.21624386 -0.02417338 -0.12136188
0.07190249 -0.099616766 0.054167185 0.0572951 -0.054130644 -0.049861897 -0.0626844 0.030792201
-0.06388536 0.046836223 -0.111387156 -0.021925576 0.0044235857 -0.26789814 -0.017334756 0.07543762
-0.043426782 0.117434874 0.14581649 0.004134606 0.008241864 0.0903783 0.16437885 0.12567914
0.100529924 -0.12107755 0.13750193 -0.066326514 0.2102642 -0.030937046 0.012698047 0.24926694
0.008803837 -0.03606631 -0.01547364 -0.15115796 0.012039189 -0.11666584 0.022785626 0.019381776
0.2614171 -0.08171697 0.009788049 0.03465477 0.14438742 -0.1857898 -0.1309571 -0.11528801
-0.01828623 0.054879095 0.15464336 0.1460612 0.31904396 -0.12142158 -0.042538144 -0.25996608
0.040818665 -0.014541962 -0.055756766 0.2526851 -0.014401715 0.2753247 0.12765566 0.13280295
0.250201 -0.009287913 -0.014170693 0.18988682 0.12591676 -0.15176386 0.20330915 0.29025418
0.0769441 0.02400154 0.0071218624 0.02460232 0.062365297 -0.2617725 0.13658424 -0.1408977
0.019283047 -0.09511858 -0.15089259 -0.097980216 0.10239185 -0.048073195 0.1572166 0.075262606
-0.21054883 -0.04487717 -0.038477622 0.05202588 -0.096932076 0.23317803 0.042303346 -0.07152248
0.08861276 -0.015847499 -0.11716569 -0.17973012 -0.29093835 0.155548 -0.24901174 0.06414277
-0.043784305 0.22102681 -0.038405497 0.19559239 -0.08012627 0.21006203 0.13974 -0.41459343
0.07595774 -0.17998193 -0.13483165 0.13768099 0.04810974 0.21635231 0.04865572 0.10849336
0.08209263 0.013447859 0.013098272 0.1136068 -0.031151274 -0.16432287 -0.020192165 -0.059603263
-0.13955 -0.06593775 -0.042655237 -0.14778858 0.22196615 -0.13847218 -0.08590504 -0.17083034
-0.100354604 -0.24657148 0.055102162 -0.08774951 0.099652104 0.10380053 0.06632629 0.24497011
-0.15243395 0.04182945 -0.0033125237 -0.027674237 0.0014190291 -0.04814264 -0.074715465 0.08532246
-0.15836601 -0.01625898 0.13012059 -0.20257077 -0.092624895 -0.07110786 -0.257323 0.02121414
0.05451194 0.048556708 0.038920537 -0.12903467 -0.07414654 -0.15667537 0.09639421 0.032422815
0.25143182 -0.15536936 0.09792037 0.06954888 -0.14112657 0.013939561 -0.07762693 -0.3329057
0.2146974 -0.048210353 -0.08064005 -0.025430055 -0.054353602 -0.069858894 0.059737474 0.14721648
-0.01927995 0.1173299 -0.06054897 0.0012981073 0.11320368 0.028153567 0.252045 -0.06596518
0.19289249 0.07328601 -0.17739564 0.04457577 -0.0054614968 -0.008856932 0.06781259 -0.04908448
-0.084262505 -0.03969079 0.19704849 -0.3679584 -0.11275962 -0.03992995 -0.09157929 -0.07500721
0.15468237 -0.023334915 -0.0058837505 0.08395981 0.045240324 0.017034369 -0.14260024 0.10691956
0.017810361 -0.17112282 0.05490795 -0.07035696 0.004175924 -0.13589099 -0.11294271 -0.13664585
-0.04182992 -0.100230396 -0.24174604 0.2136754 -0.0049743913 0.150355 -0.17682867 0.14920262
0.12659109 0.078550436 -0.19305915 0.12178913 0.18348084 0.113066494 -0.07779449 -0.14082614
-0.16988893 0.06306085 -0.15461783 0.05035137 -0.11360723 0.0864484 0.020229796 0.070081085

network_body._body_endoder.seq_layers.0.bias f4 [256]
00000000: 043c a33b 7b4b 4e3c 3748 a33b 9ea1 593c
00000010: 353e b23a f89e 6a3b 7033 1c3b 1286 d8bb
00000020: fe59 653c 74a3 213b f73d 89bb d589 c2bb
00000030: 3cbd 9b3b 622f 2b3c 5bf5 423c 046a 84ba
00000040: 806b 09bb f164 163c cd2e db3c 5f28 3e3b
00000050: 369f 2fbb 2af0 9d3b 5144 cdbb e4ea 213c
00000060: d639 9f3b 2254 663c ca18 333c 80bc d2bb
00000070: 95f7 693c 6cb4 923c 8a93 673c cbc0 dcbb
00000080: 4a07 8e3c e513 523c c870 bcbb 59e5 af3b
00000090: 5e4b 383c 216d 003b de70 7b3c 133c f33c
000000a0: 183b de3b c82e 2d3c bada ef3b a13c 243c
000000b0: bc4d a03c ff32 8e39 a242 073c 8ab6 303b
000000c0: 1021 4abb ecdc d63a a605 093c 3341 63bc
000000d0: 273b 153c e38e 9b3c ea93 f3bb db2a 273b
000000e0: 1e0b 873c fb7b 603c ef4a 5e3c d612 033c
000000f0: 1504 4c3c e1b0 a33b c0c6 ea3b 936d 8f3c
00000100: 7c94 19bb 0620 ac3c b86c 853c 2647 94bb
00000110: 52ab 30ba c2d2 7d3c ebe3 c1ba 8630 4f3c
00000120: 236d c3bb 7c05 093c c526 0e3c a9e1 533c
00000130: 7e7b 553c 0a09 db3c c81c 34bc 434f c739
00000140: 16bd 34bc 62a1 c83b 14a3 943c bf75 eabb
00000150: 08be 013c 2be1 663c 0690 00ba b523 1d3a
00000160: 5989 753c d77b a8bb c55f a6bc 48f2 ac3c
00000170: fa0b 9c3b c1ff 0a3c 5672 01bc a750 1d3c
00000180: 67ee b83b 336f 9a3c 5c9a 1e3c 0474 093c
00000190: fdcc 283c fe2a 44bc 8bb4 97ba e206 383c
000001a0: 17d2 373c 9635 453a 0a90 423c 43a2 803c
000001b0: 7657 763b 2772 5a3c 3525 793c aa13 803c
000001c0: c43c fbbb 7753 96bb d8f8 6e3c 7e20 d73b
000001d0: 98d6 813c 2c15 e83b c2b7 62bb c9d8 d93b
000001e0: 5a0f 653b 69f6 83b9 c5f1 da3b 9b6d 193c
000001f0: ea63 b1bb b389 933b 2adf b83c c661 993a
00000200: dcc9 893c fc3d cd3c a5f2 013b 727d 08bc
00000210: 23d7 e6ba f2c7 ec3a 49f1 ca38 8e4a 213c
00000220: 6942 bebb cd96 533a b920 ba3c a4b5 f83b
00000230: 287b 9c3c adb6 123b 5ab8 4e3c 52a7 89bb
00000240: f6bb 22bc e6c4 a93c 3ebd b13b 5e32 a93a
00000250: 1312 2dbb 0ec2 b93b f13a 7d3b eb50 cdbb
00000260: 8492 943b 53a2 e6b9 2740 a93c 62fc d7ba
00000270: 7b17 b43c 9131 cf3c 7071 943c 4a97 813c
00000280: 9091 8e3c a035 3bbb 5d95 5d3c 80e7 51bb
00000290: ee29 b13c cfbd 16bc d56e 1c3c fbad ff3c
000002a0: f39a f73a 10d7 3b3b b06f 203b 5c30 d53b
000002b0: 1261 f53c 177e 913c 7e2d 1bbc 79ae f9ba
000002c0: a630 d33b 0eea 333c f857 5d3c 71de d63a
000002d0: 6cf4 b93b 8af2 00bc d9a6 05bc 581a c0bb
000002e0: 277f c83c 0c28 923b 6ae7 6bbb 5624 883c
000002f0: 176c ccbb 7c2d b83b 608e dbbb efd3 d038
00000300: 17e8 a93c 99d3 0ebc 9ae3 253c 3eaa 8e3c
00000310: 88b8 c53c 3818 153c 9df2 bb3a ab09 2c3c
00000320: 25f1 ed3b c909 9d3c 4090 463c 10f1 dbb9
00000330: 23c3 57bb e085 6eba dfdb d33c 1219 623b
00000340: 6fb1 983c be95 0f3d 0b41 c8bb af17 0dba
00000350: c24b 243c 2a86 803b 746a fa3b 2443 a33b
00000360: 6b65 67bb ff1e 5e3c af01 7f3c 91bb b73b
00000370: 4b9a 973c fd5d c0ba 0bb4 223c 5244 b9bb
00000380: beb4 9fba 328f 673c de9c a439 c1cb 47bb
00000390: 0cea c53b 20c8 483b 402e 293b 032a 0a3b
000003a0: 1dfb 133c f57a 443a 7f57 bbba 1431 ad3c
000003b0: 9d18 9a3c 775b e33b ffaf 873a 1a84 1b3c
000003c0: be85 a23b 98b0 023b 58af 0e39 5c0e 0ebc
000003d0: 14e1 783c 6751 4e3b d14a 4cbb 92d9 ba3b
000003e0: 9115 173c 5e7a fd3a ab92 49ba 3104 cc3c
000003f0: 6a78 0b3c 1e79 96bb dfc8 e8ba ca26 fd38
0.0049815197 0.012591238 0.004982974 0.013283161 0.0013598861 0.003580032 0.002383437 -0.0066077793
0.013998507 0.0024664076 -0.004188295 -0.005936841 0.004752783 0.010448309 0.011899318 -0.0010102396
-0.0020968616 0.00917934 0.026755715 0.0029015762 -0.0026797778 0.0048198896 -0.0062642475 0.009882662
0.0048591895 0.014058145 0.010931203 -0.0064311624 0.01428022 0.017908297 0.014134297 -0.00673685
0.01733746 0.012822126 -0.0057507493 0.0053679165 0.011248438 0.0019596296 0.015346734 0.029691732
0.006781947 0.010570236 0.0073197754 0.010024221 0.019568317 0.00027122346 0.008255633 0.002696427
-0.003084246 0.0016392744 0.008363163 -0.013870525 0.009108341 0.018989032 -0.007433404 0.0025507722
0.016484793 0.013701434 0.01356767 0.008000096 0.012452145 0.004995451 0.007164806 0.017508304
-0.002343445 0.021011364 0.016287193 -0.004525083 -0.0006739396 0.015492143 -0.0014792656 0.012645846
-0.005963938 0.008363124 0.008676236 0.01293222 0.013029931 0.026737709 -0.01099319 0.00038015292
-0.01103141 0.006122754 0.018144168 -0.0071551497 0.007918842 0.01409177 -0.00049042737 0.00059943955
0.0149863595 -0.005141716 -0.020309338 0.021111622 0.00476217 0.008483828 -0.007900795 0.009601749
0.005643654 0.018851852 0.009680357 0.008389477 0.010302779 -0.011973141 -0.0011574192 0.01123211
0.011219523 0.00075229385 0.011875162 0.015702372 0.0037588752 0.01333288 0.015206625 0.015634377
-0.007667156 -0.0045875865 0.014585696 0.0065651527 0.015849397 0.007082602 -0.0034594391 0.0066481573
0.0034951777 -0.00025169857 0.006681653 0.009364511 -0.005413522 0.004502499 0.02256735 0.0011702112
0.016819887 0.02505397 0.0019828465 -0.00833069 -0.0017611723 0.001806496 9.6770535e-05 0.009844435
-0.0058062566 0.00080714823 0.022720682 0.0075900126 0.019101694 0.0022386715 0.012617195 -0.0042008543
-0.009932509 0.020723771 0.0054241708 0.0012908687 -0.0026408478 0.005668885 0.0038639868 -0.0062657497
0.0045340676 -0.0004398996 0.020660473 -0.0016478414 0.021983853 0.02529219 0.018120497 0.01581921
0.017403394 -0.0028565899 0.0135243805 -0.0032028854 0.021626439 -0.009200527 0.009547909 0.03121089
0.0018890783 0.0028662123 0.0024480633 0.006506009 0.029953513 0.01776032 -0.009471295 -0.0019049189
0.0064450083 0.010981096 0.013509743 0.0016393197 0.0056748893 -0.007870326 -0.008157455 -0.0058625154
0.024474693 0.0044603404 -0.0035996088 0.016618889 -0.0062384713 0.0056206565 -0.006700322 9.9576886e-05
0.020740552 -0.008717441 0.010125065 0.017415162 0.024135843 0.0091000125 0.0014339272 0.010500352
0.0072614127 0.019169705 0.012119353 -0.0004195054 -0.0032922707 -0.00090989284 0.025861679 0.0034499806
0.018639294 0.035054915 -0.0061112694 -0.0005382252 0.010027828 0.0039222436 0.0076420847 0.004982369
-0.0035308253 0.013557195 0.015564366 0.0056070765 0.01850619 -0.0014676448 0.009930621 -0.0056538964
-0.0012184603 0.0141332615 0.00031397393 -0.0030486437 0.0060398635 0.0030636862 0.002581492 0.002108217
0.009032038 0.00074951287 -0.0014293044 0.021141566 0.018810565 0.0069383937 0.0010352134 0.009491945
0.004959791 0.0019941684 0.00013607496 -0.008670416 0.015190382 0.0031481625 -0.0031172524 0.005702206
0.00922145 0.0019338836 -0.0007689397 0.024904342 0.008512596 -0.004592075 -0.001776006 0.00012071205

network_body._body_endoder.seq_layers.2.weight f4 [256, 256]
00000000: c4ea 12bd a833 2bbd 999d 5e3d 10a1 0cbd
00000010: e687 bfbd 8e81 55bd 0ed7 42bb c9cd 8abd
00000020: 4942 b1bc 7d8c 123c c612 2f3d 71e7 5bbd
00000030: a93f 2fbd 40fa 3cbd c8bb d33a 3606 873d
00000040: b0e6 20bd 82c9 c23d 8b7c 09be 37ad dabd
00000050: add2 5bbd 21c8 143c de3d 3d3d 238f c03d
00000060: 6077 153d 1ba8 5cbb c52a 5fbb 9ed9 ecbd
00000070: 03c3 b13d 23c5 3bbc 6b7f 50bd 7fc0 e3bc
00000080: 89f3 68bd af6c d7bd bead 3c3c 4669 f73d
00000090: 1d76 5e3d 1d53 afbd e219 e3bc 1ffe 00bd
000000a0: 0de5 593d eaba 1a3d cfa5 d03c f25f 9abd
000000b0: 4fef 1b3d 6362 123c a1f8 79bc 65ad f53c
000000c0: c11f 0b3d 293a a83c f283 e3bc 8fcc c53c
000000d0: 4125 0cbe 4e5b 543d aef4 473d 484d b9bb
000000e0: 8974 e43d ff11 5f3d e7ce a43d 2c61 893d
000000f0: dbe5 bdbd 8fee debc 2d6c acbc 511a d1bd
00000100: 4b34 123d 0ec2 32bd d9f7 ebbd 9092 a13d
00000110: 68c4 2abd 47a0 15be 831e 88bd 8bfa 15be
00000120: 9e8d 083c ce02 3b3e 2f7c 4dbd eb9e 2f3d
00000130: 2e2c e33a 07fe 08bd 60a3 b6bd 62b9 84bd
00000140: 9e90 bd3b 2be5 88bb a88c 33bd a504 4abb
00000150: 90c0 15be 5372 acbd 4876 243d 80c6 54bd
00000160: f2c5 7bbd 6122 e73d 1746 eb3c a5e5 313e
00000170: 960e 9a3c b991 d93a fbfd e0bd 3f68 05be
00000180: 528b a9bd ed05 82bd 9c6a 423d a9d3 febb
00000190: a3ef f63b 5f8d 0a3d 6f6b 4c3d 0d1e 51bd
000001a0: 9097 0d3c e009 ad3d f43e 48bc 6a71 dbbc
000001b0: 0578 3bbd 3a01 03bd 37de 8b3d 41a3 a73d
000001c0: 5705 8bbd 0638 54bd 91c3 3b3d 678a b63c
000001d0: 856a dfbc 60e1 2b3d 63da dcbb d40a 31bd
000001e0: 267b b2bd 2ee9 d7bc 9e01 e73d 0dee abbd
000001f0: dfad 83bc 4ae5 313e 4ce3 9fbc 4194 c83b
00000200: 26c9 91bd d07d 90bd 8483 463d 3d74 babc
00000210: 6c77 8dbd 91a6 f3bc 5b9d b5bc 82de 9fbd
00000220: 7f2e e5bc 623b 333d e1a2 533d 6fd0 a73d
00000230: 865b f2bc e713 1cbd 0bd2 a1bc 895f 1fbd
00000240: 8792 b8bc b7f2 6abd 8c9c f2bc 252b d0bd
00000250: c80c ba3c f543 8d3d 55c5 b33d e73a d8bd
00000260: d555 af3c 472f 2abd 117c 46bd b47b a23d
00000270: f468 efbc 930b d83c 9f0e 1cbd 7a6c 8939
00000280: 1bbe 53bd 84e5 49bd 8d37 27bc 004d 8abb
00000290: 5c8d c13c e8b5 38bd 696d 4e3c 2da4 983d
000002a0: 2a92 ba3d 1597 623d 7594 76bd 4ef9 86bc
000002b0: fcdf 273c dc59 ffbc 8314 a8bd 50ce 16bc
000002c0: 0028 9a3d d200 28bd fb94 1b3c d5ed 27be
000002d0: 8912 643c 5d43 2a3e b23d 6f3d b7bb b8bd
000002e0: 5599 393d f744 583d 0f6b f8bb bd61 f0bd
000002f0: 2bc5 13be f844 813d 2750 84bc d7c9 d43c
00000300: 09c5 763c 6f14 e53d ec63 3b3d 60b9 83bc
00000310: c97a 8dbc a47e 553d 693f 1dbd 6304 d2bc
00000320: d438 1fbd 2f1a 0fbd e9f6 ee3d 5842 0abd
00000330: d8c6 a23d 8ff0 aebd 0948 493d 1cdb b5bd
00000340: 5c05 d03c 7abe b5bd e54c be3c ad72 2fbe
00000350: 75ec 9e3d 3036 ddbc d50f dc3d b7e9 9eba
00000360: d98c f43c b3e2 cabc e6e8 c43a de16 be3d
00000370: 999a 85bd 6afd b13b c900 d83c 8877 ab3d
00000380: cfe0 1bbe d3c8 ffbd 793f 38be 9a53 92bd
00000390: 88b3 4fbd 8429 b23d 870f fc3d bcff d3bc
000003a0: c8de 79bd 3beb 0f3e 6481 2e3d 9713 50bd
000003b0: 6981 183d 2c58 69bd ddc7 0f3d e98e 1abd
000003c0: b8ac 123c 5a36 a9bb 7f2f 163d af85 7d3d
000003d0: b703 f73c 32ad 1f3b 6ca4 463d 8051 1c3d
000003e0: 5e4a e43b e86f 1d3c 28b5 46bd a9c3 923c
000003f0: 6bbf cb3d 7038 883d 53d4 87bd 8d5a 25bd
-0.03586842 -0.04179731 0.054349516 -0.03433329 -0.093520924 -0.052125506 -0.0029730233 -0.06777532
-0.021638053 0.008944628 0.042742513 -0.053687517 -0.04278532 -0.046137094 0.0016153986 0.065929815
-0.0392825 0.09511091 -0.13426416 -0.10677569 -0.053667713 0.009080918 0.04620158 0.09402301
0.036490798 -0.0033669535 -0.0034052592 -0.11564945 0.08679774 -0.011460575 -0.050902765 -0.02780175
-0.05687288 -0.105187766 0.011516033 0.12080626 0.05431186 -0.085607745 -0.027722303 -0.03149235
0.053196955 0.03777591 0.025469689 -0.07537831 0.03807002 0.00893459 -0.015257032 0.029989908
0.03396583 0.020535545 -0.027772877 0.024145393 -0.13686086 0.051844887 0.04881733 -0.0056549646
0.1115504 0.05446052 0.08047276 0.06707987 -0.09272357 -0.027213363 -0.021047676 -0.102100976
0.0356944 -0.043642096 -0.115218826 0.07889283 -0.041691214 -0.14611922 -0.06646445 -0.14646356
0.008334545 0.18262789 -0.05016726 0.042876165 0.0017331892 -0.033445384 -0.0891788 -0.064806715
0.005785062 -0.0041777096 -0.043835312 -0.0030825522 -0.14624238 -0.08420243 0.040151864 -0.051947117
-0.061468072 0.11285854 0.028719945 0.17372759 0.018805783 0.0016599215 -0.10985943 -0.13028048
-0.08278526 -0.063487865 0.047464952 -0.0077766967 0.007535891 0.03382623 0.049907144 -0.05105405
0.008642092 0.08449149 -0.01222204 -0.026787478 -0.045768756 -0.03198359 0.068294935 0.08185435
-0.06788128 -0.05181124 0.045840804 0.022282792 -0.027272472 0.04196298 -0.006739901 -0.043223217
-0.08714895 -0.026356306 0.11279605 -0.08395014 -0.01607412 0.17372623 -0.019517563 0.006121189
-0.07118444 -0.07055247 0.048465267 -0.022760505 -0.069075435 -0.029742511 -0.02216976 -0.07806112
-0.027976273 0.043757804 0.051669005 0.081940524 -0.029584657 -0.038104918 -0.019753477 -0.03890947
-0.022530807 -0.057360377 -0.029615663 -0.10164479 0.022711173 0.068977274 0.087778725 -0.1055811
0.021403233 -0.041548993 -0.048458163 0.07933751 -0.02922485 0.026372707 -0.03809988 0.00026211498
-0.05169497 -0.04929115 -0.010206115 -0.004220605 0.023626976 -0.045095354 0.012599328 0.07453189
0.0910991 0.055319864 -0.060200173 -0.0164763 0.010246273 -0.031170778 -0.08207037 -0.009204462
0.07527161 -0.041016407 0.009495969 -0.1639932 0.013920435 0.1662726 0.058408447 -0.09020179
0.045312244 0.052800145 -0.0075811218 -0.11737392 -0.14430682 0.06311983 -0.0161515 0.025975151
0.015061625 0.11185538 0.04574959 -0.016079605 -0.017270463 0.052122727 -0.03839055 -0.025636857
-0.038872555 -0.03493708 0.11668188 -0.033754677 0.07948083 -0.08541977 0.049140964 -0.088796824
0.02539318 -0.08874221 0.023230026 -0.17133589 0.07759944 -0.027003378 0.10745207 -0.0012124096
0.029852318 -0.024766302 0.0015023022 0.09281705 -0.06523628 0.0054318206 0.026367562 0.08372408
-0.15222476 -0.12489476 -0.17992963 -0.07144852 -0.050708324 0.08699325 0.12307649 -0.02587878
-0.061003476 0.14054577 0.042603865 -0.050799932 0.03723279 -0.056968853 0.035102714 -0.037733946
0.008952312 -0.00516395 0.03666639 0.06189507 0.030153139 0.0024364707 0.04849665 0.038163662
0.006966873 0.0096092 -0.048512608 0.017915564 0.099486195 0.066513896 -0.066322945 -0.04036956

network_body._body_endoder.seq_layers.2.bias f4 [256]
00000000: a078 44ba 3da2 4b3c 273f bdbb 82d4 123c
00000010: e25f a13b 17b0 7cbc e75b 5cbc 0bd9 78b9
00000020: 404b 213b b34f 60b9 5127 1c3b 1c10 88bb
00000030: 7c7d 68bb c275 a33a a750 313c 3cc1 603c
00000040: 7f00 1d3c dcbc 44bb a0af eabb 1868 4c3b
00000050: d62d 8b3c 3bee 333a a694 6e3c a0c8 10bb
00000060: 66eb 80bc 79e5 1c3b 2b03 343c cc11 403b
00000070: ade1 883c 14b3 6a3a 484b 8f3c 5cda 013b
00000080: 15cb 733b 28c1 8dbb 5188 e73a 690e 533b
00000090: 5edd 9cba ae75 e23b 9f41 93bb 41e2 f7b9
000000a0: 2e32 1c3c 4bb1 243c b32a 803b b802 2bbc
000000b0: 6739 90bb 2a1b 2639 b6b6 0338 7cb4 bb3b
000000c0: 33bf 113a 0922 923c c129 cc3b 01ca 963b
000000d0: b113 c23b 51d5 d73b fe4e ffbb 2541 95bb
000000e0: d4b2 8bbb 1dda 823c 9dee 93ba f370 09bb
000000f0: 25a2 9d3c cd94 fb3a addf 92bb 5527 e039
00000100: 148f aa3b cafa 8f3b 30c8 933c 6d67 c7bb
00000110: 7283 853c ac27 093b c995 c7bb 0a21 c6bb
00000120: 0eef ce3b 5c9f 7e3b 53d2 94bb 5898 3f39
00000130: 76ef c6ba d131 00bb ce8a 613c 8b67 b53a
00000140: 7196 693c f480 35bc e89b 7d3c 9704 f93b
00000150: 1f2b b2bb 1b47 e9bb ff2f 9a3c 171d 1c3c
00000160: 491a 9b3b 4e35 0abb aa8b 5a3c 9196 6c3a
00000170: 8031 4cbb 392d 3e3b 906e cb3b d403 863b
00000180: 3847 3b3b edb9 1b3b f8c0 8a3c a8f9 273c
00000190: 3549 a6bb 619f 67bc bedc 10bc e6b6 8b39
000001a0: 9142 5b3c 0ddf 32bc 17ed fe3b 8963 823c
000001b0: e17b c8b8 3398 cf3b 311d 8b3c 871b 6d3c
000001c0: 034b 2fbb c91e 833c f9a8 bbb9 08ec 98bb
000001d0: c2b8 a03c f462 803c 68c9 e43a f5dc c43c
000001e0: cc90 843a c24d 543c 972f c63b 4590 dd3b
000001f0: 01d4 033b fdae 04bc 2785 66bc 2fde 7c3b
00000200: 6795 c53b e92a 8d3a 9291 c53c 4102 593b
00000210: d858 18bc 5031 5b3c 7062 943c c46d ea3a
00000220: 7448 c53b b8ec 5d3c 2c8b 593c d9cc 823a
00000230: ac4c 983b 1eb0 ab39 afed cd3b cefc 38bb
00000240: fd8b f4bb c4af a33c 5a75 1f3c 98c0 6b3b
00000250: 193e 543b e30d 783a 564a 113c c962 4fbc
00000260: a9be 223c 11ae 3c39 c4bb 373c 26ad 283c
00000270: c767 823c 98fe 3b3b 0e75 203c 916a 8c3c
00000280: ec9d c43b 0aca 903a d9d4 823b a863 dfba
00000290: 4ac9 343c e4d3 333c 4ec0 1a3b 2f80 fa3b
000002a0: 491f 4b3c 8548 e6ba 24d4 f93b 272e 0e3c
000002b0: 735f a13b 5d1e 813c b27c 393c 7b3f 823c
000002c0: 8e3e 3b3c 8384 81bb 33e9 eb3b 8718 d83a
000002d0: bed2 dc3b 7adc 7dbb 8899 c53b bd33 9c3a
000002e0: 0dbb 7eba 4023 213c 6363 27bc c02e 9c3c
000002f0: d04c 063c 8df8 33bc d255 83bb 6219 8b3c
00000300: 0601 be3c dffa b1bb 2997 813c e5b9 333c
00000310: 553b 783b 2cf4 da3a 6ad0 3d3c 3bd2 20bb
00000320: 716a cd3c 2664 a7b9 edb4 943b 5de5 1a3b
00000330: 7094 3b3b 044b 133c d1b0 e73b b980 dd37
00000340: 40b8 bb39 be1d da3b 30f7 2f3b 91b5 9d3c
00000350: cc21 15bb 998b c4bb 6ce0 d23b 62c5 d3bb
00000360: 1713 11bb acea 93bc e516 b73c 993f 2e3a
00000370: 1915 3abb 8c7d d9bb e80e 503c ac69 9a3a
00000380: b3fb f83b a89f 4f3c f618 cb3c 88fb 043c
00000390: f1ce 0fbc 4566 a6bb 8b62 59b9 f1a5 50bb
000003a0: 03ff e43b abce c43b d1ca 6f3c d5a5 5ebb
000003b0: f368 b23c 740b 9f3c 6171 143c 901b ad3b
000003c0: 1aca a53c 502e 723b a8f1 0a3a 60df 833c
000003d0: 784a 803c 3b32 493c 4c04 6dbb ef92 683b
000003e0: fab5 c23b 7f35 0a3b 2b67 3dbb af54 f03b
000003f0: f5c8 54bb 9ae5 a63c f6a5 003b 7b85 9039
-0.0007494781 0.012428817 -0.0057753506 0.008961799 0.00492476 -0.015422842 -0.013449646 -0.00023731978
0.0024611503 -0.00021391995 0.0023827145 -0.004152311 -0.0035475185 0.0012471008 0.010822452 0.013717946
0.009582638 -0.0030019796 -0.0071620494 0.0031189974 0.01698963 0.0006863807 0.014561808 -0.0022092238
-0.015737247 0.0023940487 0.010987083 0.0029307483 0.016709173 0.00089530763 0.017491952 0.001981399
0.0037199904 -0.0043260045 0.0017664527 0.0032204634 -0.0011967828 0.006911001 -0.0044939066 -0.00047280084
0.009533448 0.010052036 0.00391134 -0.01043766 -0.004401374 0.00015841113 3.1402997e-05 0.0057283025
0.0005559802 0.017838495 0.0062305634 0.0046017175 0.0059227576 0.0065867086 -0.007791399 -0.004554885
-0.0042632613 0.015973145 -0.0011286322 -0.0020971864 0.019242356 0.0019194126 -0.0044822306 0.00042753914
0.0052050445 0.00439391 0.018039793 -0.0060853274 0.01629803 0.0020928187 -0.006090854 -0.006046419
0.0063151186 0.003885231 -0.004541674 0.00018271932 -0.0015177566 -0.0019560943 0.013766004 0.0013840062
0.014257059 -0.011078108 0.0154790655 0.007599424 -0.0054372693 -0.007119072 0.018821714 0.00952842
0.004733358 -0.00210889 0.013338963 0.00090251217 -0.0031157434 0.0029018654 0.0062082484 0.004089812
0.0028576385 0.0023761943 0.016937718 0.010252394 -0.005074645 -0.01413712 -0.008841692 0.00026648416
0.01338257 -0.010917437 0.007779728 0.015916603 -9.5598174e-05 0.006335282 0.016981693 0.014471895
-0.0026747591 0.01600589 -0.00035793314 -0.004666809 0.01961935 0.015672185 0.0017455043 0.024031142
0.0010113954 0.012957992 0.0060481536 0.006761583 0.0020115378 -0.008098361 -0.014069832 0.003858458
0.006029773 0.0010770235 0.024117265 0.0033112916 -0.009298526 0.013378456 0.018113345 0.0017885496
0.0060206 0.013545208 0.01327781 0.0009979262 0.004647812 0.0003274688 0.0062844376 -0.0028226855
-0.007462977 0.019981273 0.009732569 0.003597295 0.0032385646 0.00094625185 0.008867821 -0.01265783
0.009933152 0.00017993922 0.0112142 0.010295188 0.015918626 0.0028685685 0.009793533 0.017140659
0.006000271 0.001104654 0.0039926586 -0.001704325 0.011034319 0.010975812 0.0023613158 0.007644675
0.012397596 -0.001756922 0.007624166 0.008677996 0.0049247085 0.015761549 0.011321234 0.01589941
0.011428488 -0.003952564 0.0071994304 0.0016486802 0.0067389896 -0.003873615 0.0060302652 0.0011917275
-0.0009717204 0.009835064 -0.010216567 0.01906526 0.008197024 -0.010984552 -0.0040080333 0.016979877
0.023193847 -0.0054315175 0.01581915 0.010969614 0.0037877162 0.0016704849 0.011585334 -0.002453937
0.02507517 -0.0003192734 0.0045381696 0.0023635246 0.0028622411 0.008990053 0.0070706387 2.6405194e-05
0.00035804696 0.0066563776 0.0026850216 0.019251617 -0.002275574 -0.0059980866 0.0064354446 -0.006462739
-0.0022136623 -0.018056236 0.022349784 0.000664705 -0.0028393923 -0.006637281 0.012698866 0.001178076
0.0075983643 0.012672342 0.024792176 0.00811661 -0.008777366 -0.0050781094 -0.00020731443 -0.003183719
0.0069884076 0.006006082 0.014635758 -0.0033973355 0.02177856 0.019414641 0.009060235 0.0052828267
0.020237971 0.0036953874 0.0005300292 0.016097724 0.01566051 0.012280042 -0.0036165891 0.003548797
0.0059421035 0.0021089015 -0.0028900604 0.007334314 -0.0032468413 0.020373154 0.001963017 0.0002756527

network_body._body_endoder.seq_layers.4.weight f4 [256, 256]
00000000: 6211 733c 639a a1bd bd95 dfbb b059 34bd
00000010: 217f da3c 83c5 343e 553b ee3b c742 b83d
00000020: 2cd8 adbd b6f4 97bd 1445 bb3c 8946 6fbd
00000030: 2c2e b83c d97e d2bd 4093 a6bd b925 e13d
00000040: 3cbd 93bc 54e9 243d 571b 56bd 8943 023c
00000050: 82e6 a33c 9cd8 863d 97fc 25bd 4aa5 c33c
00000060: ad86 77bd e0c2 afbd 8313 54bd ef3a dd3d
00000070: 17c4 153d 0639 8a3d 220d 9d3d 4066 723d
00000080: 580b 96bd a510 223c 3409 91bc 0dbe d8bc
00000090: 7a2b 06bd 2a71 dcbd 70b0 b63d e66f acbd
000000a0: fdab cb3d 0088 c6bc dcf0 31bc eba1 623d
000000b0: 29f0 e03c 55e7 8e3d 0978 b1bc cdd6 babc
000000c0: a761 91bd 3390 4b3d c7ba 973d 8a77 ca3d
000000d0: 097b bf3d e94c 3f3d 9c2c ea3c bd6c 253d
000000e0: 26a0 1a3d 7194 e23c 4e0e a8bc 5746 2d3d
000000f0: 06a3 d7bd 0a25 753d d953 b4bc 8961 5dbd
00000100: 1e50 0fbd e73c 663d d12e 043d 62a4 0b3e
00000110: 9ca1 45bd d4bb bdba ea48 cfbd 881b 6cbd
00000120: 0461 953d 60b1 d93d 23b1 06bd aeaf 1cbd
00000130: e305 bf3b 627e 0fbe 8a4a 6e3c 9b78 37bd
00000140: 5215 b8bd 9b74 593c aebf 90bd 8e16 803d
00000150: 2b1e 573d f71c 693d 362d 8dbd 8649 8d3d
00000160: aac4 b03d 325f 4e3b 826e 503c 866b 023c
00000170: a49b 933d 9293 a43c 722a 443c 3912 f73c
00000180: c018 6cbd 838a 133d a81a 423d 118a a73c
00000190: 7e94 063d 20c7 ba3d ec2a 24bd 2f7e 053c
000001a0: 4f83 b4bd c5f4 9f3d 71c3 acbd 8c50 ccbc
000001b0: 03ea 0cbd 5592 643c dbbf 1fbd c324 683d
000001c0: 7fe5 7cbb 0bec 5dbe 782a dbbc 4091 f53d
000001d0: 1452 4bbd 2859 1b3d a4fc 583a afd2 923c
000001e0: 5134 00be dc7f bcbd 3139 003b 24d4 c53b
000001f0: 4220 d4bc 5bbb ab3a ee99 54bc 9db3 73bd
00000200: cfb4 07bd 681d 2a3d 123d 683d 5d9d 8d3a
00000210: 5736 4d3c 96a7 56bb 4eba 07bd c258 6e3d
00000220: 2238 393c 0980 a8bd 481f a73d afd1 773d
00000230: 518a a53c 6e44 c5bd cc5c b0bc 64ae 1e3e
00000240: 57e7 173d 05a2 fabc b819 dc3c 7362 4cbc
00000250: 263d a1ba 130a 473e 1642 04bd 2bbd b1bd
00000260: 56c7 88bd 732e 00be 297b bf3b 88b4 b1bd
00000270: 95f3 2dbd f022 eebb ef8a f4bc d343 1b3d
00000280: 23d9 ebbc 01c2 d73c aa51 cf3d 3445 753d
00000290: 58c8 2d3d d1d3 2fbd 0f1e 733d d60f 89bc
000002a0: 296b 8cbc b8ec 0c3d 3bce 14bd 39fa ae3d
000002b0: 69db 9e3c a351 173c 55b6 60bd b515 b73d
000002c0: 9557 5ebd 10d5 d5bd 1e9c d53d 4337 abbb
000002d0: 8736 a83a ee3e 21bd d0b0 e33c 7b31 05bd
000002e0: 3500 d0bd 06cd f8bc 614c 7f3c c623 bdbd
000002f0: 3011 6a3d a55e f1bc 60ff b43d dd34 253d
00000300: b52a 683d 617d edbd 357a acbc b10c b4bd
00000310: 5988 34bd 4b47 b238 e5bc a33d f9d0 41bc
00000320: 467a a8bc a50e 61bb a352 b2b8 8338 843c
00000330: 0145 a93d 7f79 d5bc 1a49 9bbd 4fe0 dbbc
00000340: f073 d2bd 8571 8a3d 798d 6cbb 6896 35bc
00000350: e864 7c3d f22f a23c ba2d 483d 8d29 cb3d
00000360: 38f3 343d 1127 1f3e 788b 343d 43ea 933d
00000370: 0b96 e0bc fc41 53bd 66c3 ab3c ff4a 8ebd
00000380: 3689 d1bd 77bb 21bd 5c29 54bd 478b a53d
00000390: 491a 25bd 519f 443b d04b a03d 0ab7 9cbc
000003a0: e9f2 193c bdbe 983d a6c7 dd3c f4bc 55bd
000003b0: 91e5 c0bc 6065 0abd b7f6 b53d a820 a9bc
000003c0: 6ac8 653d ebb2 75bd f6ac 4a3c 55eb 61bd
000003d0: 16ed ec3c b82a 4b3d a1df 223d 80a6 913c
000003e0: d929 88bd 67a2 3f3d 7d6f b8bd 81bd 8bbb
000003f0: a6fc 12bd 6c42 86bd 6596 37bb 2fb0 07bd
0.014835687 -0.07890775 -0.00682327 -0.044030845 0.026671948 0.1765347 0.0072702565 0.08997112
-0.08488497 -0.07419722 0.022860087 -0.058416877 0.022482954 -0.102781005 -0.081335545 0.10993523
-0.01803457 0.04026158 -0.052272167 0.007950672 0.020007376 0.06584284 -0.04052409 0.023882527
-0.06043117 -0.08582091 -0.05177642 0.10802256 0.03656396 0.067491576 0.076685205 0.059179544
-0.073263824 0.009891664 -0.017704584 -0.02645781 -0.032756306 -0.10763772 0.089203715 -0.084197804
0.099449135 -0.024234772 -0.010860648 0.0553302 0.027458267 0.06977717 -0.021663683 -0.022807503
-0.07098704 0.049698066 0.07408672 0.098860815 0.09349639 0.046704207 0.028585725 0.040386904
0.037750386 0.027658673 -0.020514634 0.04230341 -0.10529141 0.059849776 -0.022012638 -0.054048095
-0.034988515 0.056210425 0.03227121 0.13636926 -0.048249826 -0.0014475533 -0.10121329 -0.057643443
0.07293895 0.10629535 -0.032883774 -0.03825348 0.005829559 -0.14013055 0.014544139 -0.044792753
-0.089884415 0.01327243 -0.0706781 0.06254302 0.052519005 0.05691239 -0.06893389 0.06898789
0.08631261 0.0031489846 0.01272166 0.007960206 0.072074205 0.020089898 0.01197301 0.030160056
-0.05764079 0.036020767 0.047388703 0.020451577 0.032856457 0.09120011 -0.040079996 0.00814776
-0.088141076 0.07810358 -0.08435715 -0.024940751 -0.03440286 0.013950904 -0.039001327 0.056675684
-0.0038588939 -0.21672074 -0.02675365 0.11990595 -0.049638823 0.037926823 0.00082773925 0.017922727
-0.12519957 -0.09204075 0.0019565339 0.006037252 -0.025894288 0.0013102101 -0.012976153 -0.059497464
-0.033131417 0.04153195 0.056698866 0.0010804344 0.012525163 -0.0032753698 -0.03313666 0.058190115
0.011304887 -0.08227546 0.08160263 0.060502704 0.020207556 -0.096321926 -0.021528624 0.15496212
0.037085857 -0.030594835 0.026867732 -0.012474644 -0.0012301549 0.19437437 -0.032289587 -0.08678659
-0.06678645 -0.12517719 0.0058435393 -0.08677012 -0.042468626 -0.0072673485 -0.029851405 0.03790648
-0.028790062 0.026337625 0.10122998 0.05988045 0.04242739 -0.042926613 0.059354838 -0.016731184
-0.017140942 0.03440544 -0.03632949 0.0854382 0.019391732 0.009235772 -0.054861385 0.08939687
-0.054282743 -0.10441029 0.104301676 -0.0052250936 0.0012833633 -0.039366655 0.027794272 -0.03251789
-0.101562895 -0.0303712 0.015582175 -0.09235339 0.057145298 -0.029464075 0.088377714 0.040333617
0.056681354 -0.1159618 -0.021054367 -0.08791483 -0.044075344 8.500981e-05 0.07995013 -0.011829608
-0.020566117 -0.0034341004 -8.503094e-05 0.016140228 0.082651146 -0.02605891 -0.075823024 -0.026840357
-0.102760196 0.067599334 -0.0036095066 -0.011083223 0.06161967 0.019798253 0.048871733 0.099200346
0.044177264 0.15542246 0.04407832 0.07222416 -0.027415296 -0.0515766 0.020967197 -0.06947898
-0.10231249 -0.03948542 -0.051797256 0.08083206 -0.04030827 0.0030002187 0.0782696 -0.019130249
0.009396293 0.074582554 0.027072739 -0.052182153 -0.023546966 -0.033788085 0.08884948 -0.020645455
0.056099333 -0.059985083 0.012370339 -0.05515607 0.028921645 0.049601287 0.03976405 0.017779589
-0.06648607 0.04678574 -0.0900564 -0.004264534 -0.035885476 -0.06555638 -0.0028013226 -0.033127006

network_body._body_endoder.seq_layers.4.bias f4 [256]
00000000: 2760 5cbb 1059 0fbb 31c0 663c c7b5 e3b9
00000010: 688a b93b 9d5c db3b ae2c d83a e1c0 203c
00000020: 988f 9f3b c2a7 073a 15bc 99ba 7c1b af3a
00000030: e3ca 0fbb f022 49bb 833f 553b 8a47 f8bb
00000040: 01f6 ef39 ce0a a1ba c3a4 643b 1cca 813c
00000050: f810 633c cd09 943c 28fc 3e3b 32fa 583c
00000060: 072e a03b 23be 1cbb 506b 94bb fb3b 07bb
00000070: e0b2 b53b 02f7 9938 839f ec3b 4e39 fcba
00000080: a77e a93b d12e c8b8 d758 12bb 1213 86b9
00000090: b0d5 45bb 5d07 8dbb 3ce5 a63b d6ce a83b
000000a0: 438a 41bb da50 4c3c 1ce3 413c ab21 4c3b
000000b0: e6d2 13bb 9ed6 cf3a a4a0 6cbb cba4 a5ba
000000c0: 5652 5a3c cbfb cf3b c824 553c dee6 ad3a
000000d0: 4581 603a 622f 5ebb 8365 bcbb 44b6 433c
000000e0: 35bb a6ba 00ff beba 63bb 433b 33ae 70bb
000000f0: 49f2 843c 8c2b 60bb aeb8 d93b 708c 703b
00000100: 5aa3 85bb cd59 913b 3017 bfbb bc72 b8bb
00000110: 6293 2b3c 6b27 373c 9484 2eba c0bd 6c3c
00000120: 705f 6a37 dd3e 02bb 5ec7 19bb 40ec 953b
00000130: ce07 66bb 5369 14ba ca9c 123b 1e1e 853c
00000140: 6edb c7b8 9da2 383c 869b 0f3c 7afc 163c
00000150: 9f0e 4fbb afdd fa3b 4f75 f03b 2666 7a3a
00000160: a8b3 9abb ed21 84ba cd7c 3538 a0db 803c
00000170: f4e8 4a3c 8768 74ba 2970 a9bb a023 673a
00000180: 8095 82bb 3fab 0f3c bfe2 cfba 4b3d 4a3b
00000190: dc22 af3b dcd8 0a3c 7621 d1bb 328f a53a
000001a0: ff4b e03b 84b1 06b9 5fd4 673a f8aa c8b9
000001b0: fd5d a53b 46f9 e2ba a822 693a cfc9 d23b
000001c0: 7f00 74bb a06a 923c dcef 9fba 1f63 bfba
000001d0: b33e 913b 998e 193c 9fd1 723c c12e c83b
000001e0: e62f caba 4678 31bb 2709 36bb 0f85 43ba
000001f0: 1379 6b3b ac88 1abb 1c8d 1c3a dad8 e8ba
00000200: f983 9dba 510a 523c c209 173b b86e 2ebb
00000210: 1761 f6ba 4bc4 923b 41f0 1aba 5f40 a23b
00000220: bb9d c7ba 87d4 9cba 9321 873c d4b4 753a
00000230: 9a35 9e3b 3bc5 59bb 5fe2 5dbb 126c 4d3c
00000240: 03c1 44bb d3d2 5a3b 94a0 ab3b 32c8 ceba
00000250: e846 19bb e8b4 e33b 502f 333c 53d7 5dbb
00000260: 702e 16bc f0b0 003c 5e36 273b 55f2 00bb
00000270: 7d6a d0ba 77b4 0c3c 9b06 043c 2ad3 97ba
00000280: 7230 0fba 9a23 15ba 56fd c3ba 3362 5eba
00000290: 4f3d ab3a 7949 88bb ba58 c13b 1e30 0ebb
000002a0: 95d3 ab3a 2e84 0ebb c6b9 0e3a a5fd 163c
000002b0: 8d3a 433c d196 5cbb 60af c33b 240c 003c
000002c0: 2e55 343b 8633 c63b 065f 213c c4d2 7739
000002d0: 07f6 403c 7a82 4b3b a042 7c3b 1008 a63b
000002e0: 936c 0fba e9b8 323c 153e 23bb 7466 d43b
000002f0: 26b9 16bb 145f b03b 5a2d ad3b 51ee 093c
00000300: c422 0a3c b109 6e3c 224f 5c3b 20e2 253c
00000310: 110c 8eb9 fa12 2bbb 919e 1abb b026 013b
00000320: dcec 4c3c d88f 3dba f68d 7d3c 21c1 3a3b
00000330: 8a58 ee3b ce6d d13b c1c1 43bb 11ed 18ba
00000340: 285f d73b 2259 8d3b 9dc1 4c3b caf1 423b
00000350: 8778 9e3c 1e6a 40bb bd0b 22bb f8bc 6a3b
00000360: b387 5cba 4401 2d3c 5380 303b 9d43 a6ba
00000370: 38d5 4e3c 962f 513b 9ab2 7d3c a3ba 743c
00000380: b39c d63b 0a46 1bbb 404b 463c b03a 9c39
00000390: 51b7 633a 2c87 63bb 7c33 1cba 0189 073b
000003a0: 7029 4a3c de93 a6ba c808 baba 8235 06bb
000003b0: 35de 1d3b af1f d6ba f81f cd3b d732 163c
000003c0: a4ad c73b 23cd 1639 f2b5 bbbb 9a78 363c
000003d0: 8aab b9bb ff07 9b3b 8c1a fdbb 41de 75ba
000003e0: b33e acb9 3f85 97bb adf6 283b 7627 e23b
000003f0: c70e 6fbb 9bf9 823b c7b2 c4bb e769 063b
-0.0033626647 -0.0021873154 0.014083908 -0.0004343225 0.0056622513 0.00669439 0.0016492808 0.009811611
0.0048694126 0.0005174839 -0.0011729026 0.0013359631 -0.0021940998 -0.003069099 0.0032539077 -0.0075768875
0.0004576892 -0.0012286545 0.0034888245 0.015843444 0.013859026 0.01807108 0.0029141996 0.013243245
0.0048882994 -0.0023917041 -0.004529394 -0.0020635116 0.005545005 7.341617e-05 0.0072211637 -0.0019243152
0.005172569 -9.5454634e-05 -0.0022330785 -0.0002557268 -0.0030187182 -0.0043038563 0.005093245 0.00515161
-0.0029531873 0.012470448 0.011833932 0.0031147997 -0.0022556125 0.0015856808 -0.0036106491 -0.0012637613
0.0133252945 0.0063471547 0.013009258 0.0013267656 0.00085641845 -0.0033902754 -0.005749406 0.011945311
-0.0012720587 -0.0014571846 0.002986633 -0.0036724925 0.016228812 -0.0034205643 0.00664433 0.00367048
-0.004078311 0.004435754 -0.0058316216 -0.005628912 0.0104721505 0.011178832 -0.0006657329 0.014449537
1.3969708e-05 -0.0019873895 -0.002346478 0.0045752823 -0.0035099867 -0.00056614465 0.0022371286 0.016249713
-9.5299314e-05 0.011269239 0.008765107 0.009215469 -0.0031594408 0.0076558213 0.007338203 0.00095519645
-0.0047211237 -0.0010080911 4.3269993e-05 0.015729725 0.012384642 -0.0009323437 -0.0051708412 0.0008817259
-0.003985107 0.008768856 -0.0015860422 0.0030859287 0.0053447317 0.008474555 -0.0063821627 0.0012631177
0.006844997 -0.00012845366 0.00088435964 -0.00038274354 0.0050466047 -0.0017316721 0.0008893409 0.006432749
-0.003723174 0.017873108 -0.0012202221 -0.0014601684 0.004432523 0.009372377 0.014820485 0.006109089
-0.0015425652 -0.0027079745 -0.0027776451 -0.0007458487 0.003593032 -0.0023579998 0.00059719547 -0.0017764822
-0.001201748 0.012819842 0.0023046588 -0.0026616286 -0.0018797246 0.0044789664 -0.00059104344 0.0049515213
-0.0015229502 -0.0011965194 0.016495502 0.0009372954 0.004828167 -0.003322913 -0.0033856852 0.012537973
-0.003002227 0.0033389821 0.0052376483 -0.0015776216 -0.002338821 0.006949056 0.010936573 -0.0033850267
-0.009166345 0.007854685 0.0025514583 -0.001967569 -0.0015900877 0.008587948 0.0080582155 -0.0011583318
-0.0005462236 -0.0005689204 -0.0014952819 -0.0008483261 0.0013064536 -0.0041591492 0.0059004696 -0.002169616
0.0013109321 -0.0021746266 0.00054445525 0.009215747 0.011915815 -0.003365923 0.005971834 0.007815395
0.0027516591 0.0060486225 0.0098493155 0.00023634272 0.0117774075 0.0031053112 0.003849186 0.005066879
-0.0005471196 0.010908344 -0.002490883 0.00648194 -0.002299854 0.005382428 0.0052849473 0.008418635
0.00843114 0.014528678 0.0033616503 0.010124713 -0.0002709334 -0.002610384 -0.0023593048 0.0019706897
0.012507644 -0.0007231212 0.015475741 0.0028496461 0.0072737383 0.0063912636 -0.0029870125 -0.00058336655
0.006572623 0.004313604 0.0031243332 0.0029746168 0.019344581 -0.0029360126 -0.0024726235 0.00358182
-0.0008412555 0.010559384 0.0026931956 -0.0012684945 0.0126240775 0.0031919233 0.015484476 0.014937076
0.0065494417 -0.002369287 0.012102902 0.00029798364 0.0008686679 -0.003471802 -0.00059585995 0.0020681026
0.012338981 -0.0012708863 -0.0014193291 -0.002047867 0.0024088745 -0.0016336347 0.0062599145 0.009167395
0.0060936976 0.00014381534 -0.0057284767 0.011137152 -0.005666201 0.004731178 -0.007724112 -0.0009379127
-0.0003285311 -0.0046240385 0.0025781796 0.0069016768 -0.0036477314 0.0039970404 -0.006002757 0.00205099

action_model._continuous_distribution.log_sigma f4 [1, 4]
00000000: 5cdf 46bc 1830 cabc 29d4 82bc ab4c bb3b
-0.012138214 -0.024681136 -0.015970306 0.0057159266

action_model._continuous_distribution.mu.weight f4 [4, 256]
00000000: c7aa 7c3c d047 3a3c 85ee 61bb 52c7 ba3c
00000010: 093c dbbc fc1a b43c d0f2 d93c 6f68 3b3b
00000020: 115b 763c e56e d1bc 6549 79ba d796 08bd
00000030: d9fa 07bc fa01 9b3c b129 9fbb f804 ecbb
00000040: 6358 04bd a5ed 3ebb 815f 6cbc 2fcc 803b
00000050: 65e6 023d fef8 13bc 3399 94bc a4b9 6dbc
00000060: b434 1abb d357 33bc 9df0 5cbc a99a c33c
00000070: 12ae 8d3c 3460 323c 697b 033b fa86 603c
00000080: 3856 c1bb 96ec 413c 514c 9dbc c3f6 acbc
00000090: 079c f13c 443e e6ba ca25 cabc 24e1 99bc
000000a0: 268f 853c 3033 693c e3be 47bc b05d 8d3c
000000b0: b086 343b 7672 59bc a293 91bb 982d abbc
000000c0: ff72 cbbc 64fe bd3c e5de 023c 2239 db3c
000000d0: 1d9d 62bb 61ff 3a3c 3001 bd3a b9db c13b
000000e0: 4043 15bc 6419 79bc 2352 7abc f1b3 8b3c
000000f0: 8010 88bc 742c bfbb f533 8bbc 153d f7bc
00000100: 1381 893c 17d1 98bc 24f8 1ebb e5e0 0a3c
00000110: ebc2 5a3b dc3b bc3b cd5a b93b ef05 2d3c
00000120: 04af 10bc 71a1 5e3b 10f4 c63c bcff 5b3c
00000130: f270 7dbc 4579 d33a 0eaf 57bc 31fe 113c
00000140: 7eb7 d9bc 91a2 3e3c 7b7a 7bbb 9ea7 8c3c
00000150: 1271 1039 a983 c23c 421a 8bbc e612 733a
00000160: 6853 eb3b b330 e13c 4271 d2bc 7fa6 9f3c
00000170: 0cf1 34bc e80a 8b3b 7010 713c d972 37bd
00000180: e851 733c a847 803c 1bac 8e3b 814a 143c
00000190: ad7c 9fbc eb49 263b a481 93bb f268 ee3c
000001a0: 8058 da3c 5521 1a3c b407 043c 22ab f53c
000001b0: 2be1 acbc 06a2 d4bb 85ec 3cbb e31c 21bd
000001c0: bffb 3cbc 933e 5dbb b994 6db9 1795 8dbb
000001d0: 5479 863c ee26 0b3c 8113 a1bb 829e 07bc
000001e0: 59f9 02bb b8cc 033c 6dde a23c 6403 2b3c
000001f0: 03d6 26bb 8ece d13c b13a 96bc cdd9 7e3b
00000200: df05 f4bb f4d0 a8bb 9f69 873c 6a8e 5e3c
00000210: 4a86 88bc fa18 b5bc c80f f63c f337 133c
00000220: 13a4 efbc 66a9 02bd e366 3d3c 2a2a 3cbc
00000230: d37a 2bbc af89 213c 6376 343a 7575 aabb
00000240: 2f47 86bc f327 93bc 9a30 d03a cfe1 c23c
00000250: d3a8 9dbb cf8d 923c d01c 773c 92e1 fdbb
00000260: 5b5d ffb8 a50d 7cbb f2e2 eb3c 323d efbb
00000270: 63f3 faba 8f76 69bc c4dd 973c 3edc b8bc
00000280: fabf 8bba a562 c4bc 1cac d1bb a86b 12bd
00000290: 627c 08bc 8993 493b a1b4 103a 6a25 253a
000002a0: e50e 0fbd 0539 9ebc 233b ecbb b79b dfbb
000002b0: 5d80 ebbc 47c3 0abc d3bc 963c b952 dc3b
000002c0: 4015 89bb 949f a9bc 24a8 cbbb 5965 02bc
000002d0: b72c 48b9 98c0 b8bc e0d3 c63b 307e 083c
000002e0: c374 6e3c e775 823c 112a 65bc f90d f9bc
000002f0: c80e 803b 136c 753c 6e94 7d3c 6e30 273b
00000300: 10af cabb 2304 0ebd 028d 00bd 4bd0 463c
00000310: 1b0b f1bc 1572 95bb 5836 123c 49d9 12bb
00000320: a481 0abc 0813 21bc 8d3e a13c 50e1 a5bc
00000330: 5ea0 aebc 1f69 a3bb 9ac6 a1bb 9a46 b0bc
00000340: 306d a6bc 584b ba3c ec84 003d 6b2a 73bc
00000350: 2e7a d0bb d3c1 313b 3806 fe3b 1e2f e93c
00000360: 5201 9dbc 426d 893c f1c3 02bd 1f2c 4d3c
00000370: 7432 ff3a d282 aa3c 4c32 dbbb 4d52 31bb
00000380: 6720 93bc 7c2d b93c 5bd8 b43a 098f f8bb
00000390: 0695 0fbc 71d1 8fbc 3734 bc3b 516a 00bd
000003a0: bf1c fa3c a152 073c 65e3 0d3b f797 08bc
000003b0: da77 a63b c536 12bc ec2b 00bd 331b 983c
000003c0: 1d45 233d 9757 9ebc f48a 1f3a f2bd 8bbc
000003d0: 215c 8a3b f9f0 66ba 5875 713b 3426 b23b
000003e0: 3734 64bc 362e 313c 2b5f 963c d9cb bc3b
000003f0: 602b c2bc 2d55 dcbc 9241 a03c 4bc3 0f3c
0.015421576 0.0113696605 -0.0034474444 0.022800121 -0.026762025 0.021985523 0.02660504 0.0028596183
0.01503636 -0.025565574 -0.0009509533 -0.033346977 -0.008299553 0.018921841 -0.004857265 -0.0072027408
-0.032310855 -0.0029133346 -0.014427067 0.0039305906 0.031958003 -0.009031532 -0.018139457 -0.014509592
-0.0023529949 -0.010946232 -0.013485101 0.023877459 0.017294917 0.010887194 0.0020062572 0.013704056
-0.0059001707 0.011836192 -0.01920143 -0.021113759 0.029493345 -0.0017566164 -0.024676222 -0.018784113
0.01630361 0.014233395 -0.012191507 0.017256588 0.00275461 -0.0132719185 -0.004442648 -0.020895764
-0.024835108 0.023192592 0.0079877125 0.026760641 -0.003457851 0.011413426 0.001441991 0.0059160856
-0.009110272 -0.0152038075 -0.015278372 0.017053576 -0.01660943 -0.0058341566 -0.016992548 -0.030180493
0.01678518 -0.01865439 -0.002425679 0.008476471 0.003338034 0.0057444405 0.0056565762 0.010560497
-0.0088307895 0.0033970738 0.0242863 0.013427671 -0.015468823 0.0016134164 -0.013164295 0.008910702
-0.026576754 0.011635439 -0.0038372565 0.01716977 0.00013775032 0.023744421 -0.016980294 0.00092725304
0.0071815737 0.027489042 -0.025688771 0.019488571 -0.011043798 0.0042432435 0.014713392 -0.04478726
0.014851071 0.015659168 0.0043540127 0.009050966 -0.01946863 0.0025373648 -0.0045015384 0.029102776
0.026653528 0.009407361 0.008058477 0.029988829 -0.021103462 -0.0064890413 -0.00288275 -0.03933419
-0.01153463 -0.003375922 -0.00022657485 -0.0043207514 0.016415276 0.008493168 -0.004915655 -0.008277537
-0.0019985049 0.008044414 0.019881452 0.01043782 -0.002545715 0.025611188 -0.018338533 0.0038887144
-0.007446989 -0.0051518623 0.016529856 0.013583759 -0.016665597 -0.022106636 0.030036822 0.008985507
-0.029253041 -0.031899832 0.011560175 -0.011484662 -0.010466295 0.0098594865 0.0006884096 -0.0052019903
-0.016391365 -0.017963385 0.0015883625 0.023789315 -0.004811385 0.017889885 0.015082553 -0.0077478373
-0.00012176736 -0.0038460281 0.02879474 -0.007300996 -0.0019146021 -0.014249458 0.018538363 -0.022565957
-0.0010662072 -0.023972819 -0.006398691 -0.0357472 -0.008330436 0.0030758104 0.000552008 0.00062998256
-0.034926314 -0.019314298 -0.007209198 -0.0068239826 -0.028747732 -0.008469409 0.018400585 0.0067237285
-0.0041834414 -0.020705976 -0.0062151123 -0.0079587335 -0.00019090144 -0.022552773 0.006067738 0.008330867
0.014554205 0.01592536 -0.01398708 -0.03040217 0.003908012 0.01497938 0.015477283 0.0025511044
-0.00618542 -0.034671914 -0.031384476 0.012134622 -0.02942424 -0.004560719 0.008924089 -0.0022407344
-0.00845376 -0.009831198 0.019683147 -0.020249039 -0.021316703 -0.0049868966 -0.004937005 -0.02151804
-0.020315737 0.022741005 0.031376764 -0.014841656 -0.006362221 0.0027123585 0.007752206 0.02846485
-0.019165669 0.016775731 -0.031925146 0.012522726 0.0019469992 0.020814333 -0.0066893455 -0.0027057112
-0.017959787 0.022604696 0.0013797389 -0.0075854105 -0.008763557 -0.017555924 0.005743529 -0.03135139
0.030531285 0.008259446 0.002165043 -0.0083370125 0.0050802054 -0.008924191 -0.031291887 0.018567657
0.039860833 -0.019328875 0.0006086074 -0.017058346 0.0042224084 -0.00088097114 0.0036843624 0.005436683
-0.013928465 0.01081424 0.018355926 0.005761605 -0.023702323 -0.026896084 0.019562516 0.008774589

action_model._continuous_distribution.mu.bias f4 [4]
00000000: eccb 2739 2be4 edbb 32a3 103b bea4 253b
0.00016002328 -0.0072598658 0.0022069928 0.0025275196

onnx::Div_66 f4 [51]
00000000: 8450 c93e 564f 513e 788e 7e3e 948c ce3e
00000010: b7d1 4c3e 059c 7e3e 45e9 cc3e 7674 4c3e
00000020: 2deb 7c3e 6c4c d23e d8e2 523e 297a 7e3e
00000030: f656 ce3e 8d87 513e b135 7b3e 74a8 d93e
00000040: a92b 5f3e 60be 803e 8f93 d43e 1667 5c3e
00000050: 6cff 7d3e 46b6 df3e 5eca 633e 9ef4 833e
00000060: 3dac df3e 8d98 6b3e 725f 833e 68c2 e33e
00000070: da22 653e 07d5 873e 30df e93e f25a 7a3e
00000080: 22a6 8a3e 0263 e73e 44dc 843e 3fcd 8f3e
00000090: 3b10 f33e 5b9f 893e 0e54 943e f5a4 eb3e
000000a0: a32d 923e dcb8 933e 7ea4 f73e e166 9e3e
000000b0: a02e 9c3e 2686 ec3e 4fc6 9a3e ee6f 943e
000000c0: ee2a f63e 4257 a13e 92df 9b3e
0.3931924 0.2044042 0.24859035 0.40341628 0.20001875 0.24864204 0.4002172 0.19966301
0.24699087 0.4107393 0.20594347 0.24851288 0.4030072 0.20461865 0.245322 0.42511332
0.21793999 0.25145245 0.41518828 0.21523699 0.24804467 0.4369375 0.22245166 0.25772566
0.43686095 0.23007412 0.25658756 0.44484258 0.22376576 0.26529714 0.4567809 0.24448755
0.27079874 0.45192724 0.259493 0.28086278 0.4747332 0.2687939 0.2897038 0.4602429
0.28550443 0.28851974 0.48367685 0.30937865 0.30504322 0.46196097 0.30229422 0.28991646
0.48079628 0.31511885 0.30444008

onnx::Div_69 f4 [6]
00000000: 17e6 1742 6741 3a40 62c2 c341 6240 1042
00000010: 215e b93a 8b26 b041
37.974697 2.9102418 24.469913 36.062874 0.0014142432 22.01882
